module {
  func.func @main(%arg0: !torch.vtensor<[16],f32>, %arg1: !torch.vtensor<[16],f32>, %arg2: !torch.vtensor<[],si64>, %arg3: !torch.vtensor<[16],f32>, %arg4: !torch.vtensor<[16],f32>, %arg5: !torch.vtensor<[],si64>, %arg6: !torch.vtensor<[16],f32>, %arg7: !torch.vtensor<[16],f32>, %arg8: !torch.vtensor<[],si64>, %arg9: !torch.vtensor<[16],f32>, %arg10: !torch.vtensor<[16],f32>, %arg11: !torch.vtensor<[],si64>, %arg12: !torch.vtensor<[16],f32>, %arg13: !torch.vtensor<[16],f32>, %arg14: !torch.vtensor<[],si64>, %arg15: !torch.vtensor<[16],f32>, %arg16: !torch.vtensor<[16],f32>, %arg17: !torch.vtensor<[],si64>, %arg18: !torch.vtensor<[16],f32>, %arg19: !torch.vtensor<[16],f32>, %arg20: !torch.vtensor<[],si64>, %arg21: !torch.vtensor<[32],f32>, %arg22: !torch.vtensor<[32],f32>, %arg23: !torch.vtensor<[],si64>, %arg24: !torch.vtensor<[32],f32>, %arg25: !torch.vtensor<[32],f32>, %arg26: !torch.vtensor<[],si64>, %arg27: !torch.vtensor<[32],f32>, %arg28: !torch.vtensor<[32],f32>, %arg29: !torch.vtensor<[],si64>, %arg30: !torch.vtensor<[32],f32>, %arg31: !torch.vtensor<[32],f32>, %arg32: !torch.vtensor<[],si64>, %arg33: !torch.vtensor<[32],f32>, %arg34: !torch.vtensor<[32],f32>, %arg35: !torch.vtensor<[],si64>, %arg36: !torch.vtensor<[32],f32>, %arg37: !torch.vtensor<[32],f32>, %arg38: !torch.vtensor<[],si64>, %arg39: !torch.vtensor<[32],f32>, %arg40: !torch.vtensor<[32],f32>, %arg41: !torch.vtensor<[],si64>, %arg42: !torch.vtensor<[64],f32>, %arg43: !torch.vtensor<[64],f32>, %arg44: !torch.vtensor<[],si64>, %arg45: !torch.vtensor<[64],f32>, %arg46: !torch.vtensor<[64],f32>, %arg47: !torch.vtensor<[],si64>, %arg48: !torch.vtensor<[64],f32>, %arg49: !torch.vtensor<[64],f32>, %arg50: !torch.vtensor<[],si64>, %arg51: !torch.vtensor<[64],f32>, %arg52: !torch.vtensor<[64],f32>, %arg53: !torch.vtensor<[],si64>, %arg54: !torch.vtensor<[64],f32>, %arg55: !torch.vtensor<[64],f32>, %arg56: !torch.vtensor<[],si64>, %arg57: !torch.vtensor<[64],f32>, %arg58: !torch.vtensor<[64],f32>, %arg59: !torch.vtensor<[],si64>, %arg60: !torch.vtensor<[64],f32>, %arg61: !torch.vtensor<[64],f32>, %arg62: !torch.vtensor<[],si64>, %arg63: !torch.vtensor<[1,3,32,32],f32>) -> (!torch.vtensor<[16],f32>, !torch.vtensor<[16],f32>, !torch.vtensor<[],si64>, !torch.vtensor<[16],f32>, !torch.vtensor<[16],f32>, !torch.vtensor<[],si64>, !torch.vtensor<[16],f32>, !torch.vtensor<[16],f32>, !torch.vtensor<[],si64>, !torch.vtensor<[16],f32>, !torch.vtensor<[16],f32>, !torch.vtensor<[],si64>, !torch.vtensor<[16],f32>, !torch.vtensor<[16],f32>, !torch.vtensor<[],si64>, !torch.vtensor<[16],f32>, !torch.vtensor<[16],f32>, !torch.vtensor<[],si64>, !torch.vtensor<[16],f32>, !torch.vtensor<[16],f32>, !torch.vtensor<[],si64>, !torch.vtensor<[32],f32>, !torch.vtensor<[32],f32>, !torch.vtensor<[],si64>, !torch.vtensor<[32],f32>, !torch.vtensor<[32],f32>, !torch.vtensor<[],si64>, !torch.vtensor<[32],f32>, !torch.vtensor<[32],f32>, !torch.vtensor<[],si64>, !torch.vtensor<[32],f32>, !torch.vtensor<[32],f32>, !torch.vtensor<[],si64>, !torch.vtensor<[32],f32>, !torch.vtensor<[32],f32>, !torch.vtensor<[],si64>, !torch.vtensor<[32],f32>, !torch.vtensor<[32],f32>, !torch.vtensor<[],si64>, !torch.vtensor<[32],f32>, !torch.vtensor<[32],f32>, !torch.vtensor<[],si64>, !torch.vtensor<[64],f32>, !torch.vtensor<[64],f32>, !torch.vtensor<[],si64>, !torch.vtensor<[64],f32>, !torch.vtensor<[64],f32>, !torch.vtensor<[],si64>, !torch.vtensor<[64],f32>, !torch.vtensor<[64],f32>, !torch.vtensor<[],si64>, !torch.vtensor<[64],f32>, !torch.vtensor<[64],f32>, !torch.vtensor<[],si64>, !torch.vtensor<[64],f32>, !torch.vtensor<[64],f32>, !torch.vtensor<[],si64>, !torch.vtensor<[64],f32>, !torch.vtensor<[64],f32>, !torch.vtensor<[],si64>, !torch.vtensor<[64],f32>, !torch.vtensor<[64],f32>, !torch.vtensor<[],si64>, !torch.vtensor<[1,100],f32>) {
    %int64 = torch.constant.int 64
    %int256 = torch.constant.int 256
    %int6 = torch.constant.int 6
    %float1.000000e00 = torch.constant.float 1.000000e+00
    %int1024 = torch.constant.int 1024
    %int7 = torch.constant.int 7
    %false = torch.constant.bool false
    %0 = torch.vtensor.literal(dense_resource<torch_tensor_100_torch.float32> : tensor<100xf32>) : !torch.vtensor<[100],f32>
    %1 = torch.vtensor.literal(dense_resource<torch_tensor_100_64_torch.float32> : tensor<100x64xf32>) : !torch.vtensor<[100,64],f32>
    %2 = torch.vtensor.literal(dense_resource<torch_tensor_64_torch.float32_13> : tensor<64xf32>) : !torch.vtensor<[64],f32>
    %3 = torch.vtensor.literal(dense_resource<torch_tensor_64_torch.float32_12> : tensor<64xf32>) : !torch.vtensor<[64],f32>
    %4 = torch.vtensor.literal(dense_resource<torch_tensor_64_64_3_3_torch.float32_4> : tensor<64x64x3x3xf32>) : !torch.vtensor<[64,64,3,3],f32>
    %5 = torch.vtensor.literal(dense_resource<torch_tensor_64_torch.float32_11> : tensor<64xf32>) : !torch.vtensor<[64],f32>
    %6 = torch.vtensor.literal(dense_resource<torch_tensor_64_torch.float32_10> : tensor<64xf32>) : !torch.vtensor<[64],f32>
    %7 = torch.vtensor.literal(dense_resource<torch_tensor_64_64_3_3_torch.float32_3> : tensor<64x64x3x3xf32>) : !torch.vtensor<[64,64,3,3],f32>
    %8 = torch.vtensor.literal(dense_resource<torch_tensor_64_torch.float32_9> : tensor<64xf32>) : !torch.vtensor<[64],f32>
    %9 = torch.vtensor.literal(dense_resource<torch_tensor_64_torch.float32_8> : tensor<64xf32>) : !torch.vtensor<[64],f32>
    %10 = torch.vtensor.literal(dense_resource<torch_tensor_64_64_3_3_torch.float32_2> : tensor<64x64x3x3xf32>) : !torch.vtensor<[64,64,3,3],f32>
    %11 = torch.vtensor.literal(dense_resource<torch_tensor_64_torch.float32_7> : tensor<64xf32>) : !torch.vtensor<[64],f32>
    %12 = torch.vtensor.literal(dense_resource<torch_tensor_64_torch.float32_6> : tensor<64xf32>) : !torch.vtensor<[64],f32>
    %13 = torch.vtensor.literal(dense_resource<torch_tensor_64_64_3_3_torch.float32_1> : tensor<64x64x3x3xf32>) : !torch.vtensor<[64,64,3,3],f32>
    %14 = torch.vtensor.literal(dense_resource<torch_tensor_64_torch.float32_5> : tensor<64xf32>) : !torch.vtensor<[64],f32>
    %15 = torch.vtensor.literal(dense_resource<torch_tensor_64_torch.float32_4> : tensor<64xf32>) : !torch.vtensor<[64],f32>
    %16 = torch.vtensor.literal(dense_resource<torch_tensor_64_32_1_1_torch.float32> : tensor<64x32x1x1xf32>) : !torch.vtensor<[64,32,1,1],f32>
    %17 = torch.vtensor.literal(dense_resource<torch_tensor_64_torch.float32_3> : tensor<64xf32>) : !torch.vtensor<[64],f32>
    %18 = torch.vtensor.literal(dense_resource<torch_tensor_64_torch.float32_2> : tensor<64xf32>) : !torch.vtensor<[64],f32>
    %19 = torch.vtensor.literal(dense_resource<torch_tensor_64_64_3_3_torch.float32> : tensor<64x64x3x3xf32>) : !torch.vtensor<[64,64,3,3],f32>
    %20 = torch.vtensor.literal(dense_resource<torch_tensor_64_torch.float32_1> : tensor<64xf32>) : !torch.vtensor<[64],f32>
    %21 = torch.vtensor.literal(dense_resource<torch_tensor_64_torch.float32> : tensor<64xf32>) : !torch.vtensor<[64],f32>
    %float1.015870e00 = torch.constant.float 1.0158730158730158
    %22 = torch.vtensor.literal(dense_resource<torch_tensor_64_32_3_3_torch.float32> : tensor<64x32x3x3xf32>) : !torch.vtensor<[64,32,3,3],f32>
    %23 = torch.vtensor.literal(dense_resource<torch_tensor_32_torch.float32_13> : tensor<32xf32>) : !torch.vtensor<[32],f32>
    %24 = torch.vtensor.literal(dense_resource<torch_tensor_32_torch.float32_12> : tensor<32xf32>) : !torch.vtensor<[32],f32>
    %25 = torch.vtensor.literal(dense_resource<torch_tensor_32_32_3_3_torch.float32_4> : tensor<32x32x3x3xf32>) : !torch.vtensor<[32,32,3,3],f32>
    %26 = torch.vtensor.literal(dense_resource<torch_tensor_32_torch.float32_11> : tensor<32xf32>) : !torch.vtensor<[32],f32>
    %27 = torch.vtensor.literal(dense_resource<torch_tensor_32_torch.float32_10> : tensor<32xf32>) : !torch.vtensor<[32],f32>
    %28 = torch.vtensor.literal(dense_resource<torch_tensor_32_32_3_3_torch.float32_3> : tensor<32x32x3x3xf32>) : !torch.vtensor<[32,32,3,3],f32>
    %29 = torch.vtensor.literal(dense_resource<torch_tensor_32_torch.float32_9> : tensor<32xf32>) : !torch.vtensor<[32],f32>
    %30 = torch.vtensor.literal(dense_resource<torch_tensor_32_torch.float32_8> : tensor<32xf32>) : !torch.vtensor<[32],f32>
    %31 = torch.vtensor.literal(dense_resource<torch_tensor_32_32_3_3_torch.float32_2> : tensor<32x32x3x3xf32>) : !torch.vtensor<[32,32,3,3],f32>
    %32 = torch.vtensor.literal(dense_resource<torch_tensor_32_torch.float32_7> : tensor<32xf32>) : !torch.vtensor<[32],f32>
    %33 = torch.vtensor.literal(dense_resource<torch_tensor_32_torch.float32_6> : tensor<32xf32>) : !torch.vtensor<[32],f32>
    %34 = torch.vtensor.literal(dense_resource<torch_tensor_32_32_3_3_torch.float32_1> : tensor<32x32x3x3xf32>) : !torch.vtensor<[32,32,3,3],f32>
    %35 = torch.vtensor.literal(dense_resource<torch_tensor_32_torch.float32_5> : tensor<32xf32>) : !torch.vtensor<[32],f32>
    %36 = torch.vtensor.literal(dense_resource<torch_tensor_32_torch.float32_4> : tensor<32xf32>) : !torch.vtensor<[32],f32>
    %37 = torch.vtensor.literal(dense_resource<torch_tensor_32_16_1_1_torch.float32> : tensor<32x16x1x1xf32>) : !torch.vtensor<[32,16,1,1],f32>
    %38 = torch.vtensor.literal(dense_resource<torch_tensor_32_torch.float32_3> : tensor<32xf32>) : !torch.vtensor<[32],f32>
    %39 = torch.vtensor.literal(dense_resource<torch_tensor_32_torch.float32_2> : tensor<32xf32>) : !torch.vtensor<[32],f32>
    %40 = torch.vtensor.literal(dense_resource<torch_tensor_32_32_3_3_torch.float32> : tensor<32x32x3x3xf32>) : !torch.vtensor<[32,32,3,3],f32>
    %41 = torch.vtensor.literal(dense_resource<torch_tensor_32_torch.float32_1> : tensor<32xf32>) : !torch.vtensor<[32],f32>
    %42 = torch.vtensor.literal(dense_resource<torch_tensor_32_torch.float32> : tensor<32xf32>) : !torch.vtensor<[32],f32>
    %float1.003920e00 = torch.constant.float 1.003921568627451
    %43 = torch.vtensor.literal(dense_resource<torch_tensor_32_16_3_3_torch.float32> : tensor<32x16x3x3xf32>) : !torch.vtensor<[32,16,3,3],f32>
    %44 = torch.vtensor.literal(dense_resource<torch_tensor_16_torch.float32_13> : tensor<16xf32>) : !torch.vtensor<[16],f32>
    %45 = torch.vtensor.literal(dense_resource<torch_tensor_16_torch.float32_12> : tensor<16xf32>) : !torch.vtensor<[16],f32>
    %46 = torch.vtensor.literal(dense_resource<torch_tensor_16_16_3_3_torch.float32_5> : tensor<16x16x3x3xf32>) : !torch.vtensor<[16,16,3,3],f32>
    %47 = torch.vtensor.literal(dense_resource<torch_tensor_16_torch.float32_11> : tensor<16xf32>) : !torch.vtensor<[16],f32>
    %48 = torch.vtensor.literal(dense_resource<torch_tensor_16_torch.float32_10> : tensor<16xf32>) : !torch.vtensor<[16],f32>
    %49 = torch.vtensor.literal(dense_resource<torch_tensor_16_16_3_3_torch.float32_4> : tensor<16x16x3x3xf32>) : !torch.vtensor<[16,16,3,3],f32>
    %50 = torch.vtensor.literal(dense_resource<torch_tensor_16_torch.float32_9> : tensor<16xf32>) : !torch.vtensor<[16],f32>
    %51 = torch.vtensor.literal(dense_resource<torch_tensor_16_torch.float32_8> : tensor<16xf32>) : !torch.vtensor<[16],f32>
    %52 = torch.vtensor.literal(dense_resource<torch_tensor_16_16_3_3_torch.float32_3> : tensor<16x16x3x3xf32>) : !torch.vtensor<[16,16,3,3],f32>
    %53 = torch.vtensor.literal(dense_resource<torch_tensor_16_torch.float32_7> : tensor<16xf32>) : !torch.vtensor<[16],f32>
    %54 = torch.vtensor.literal(dense_resource<torch_tensor_16_torch.float32_6> : tensor<16xf32>) : !torch.vtensor<[16],f32>
    %55 = torch.vtensor.literal(dense_resource<torch_tensor_16_16_3_3_torch.float32_2> : tensor<16x16x3x3xf32>) : !torch.vtensor<[16,16,3,3],f32>
    %56 = torch.vtensor.literal(dense_resource<torch_tensor_16_torch.float32_5> : tensor<16xf32>) : !torch.vtensor<[16],f32>
    %57 = torch.vtensor.literal(dense_resource<torch_tensor_16_torch.float32_4> : tensor<16xf32>) : !torch.vtensor<[16],f32>
    %58 = torch.vtensor.literal(dense_resource<torch_tensor_16_16_3_3_torch.float32_1> : tensor<16x16x3x3xf32>) : !torch.vtensor<[16,16,3,3],f32>
    %59 = torch.vtensor.literal(dense_resource<torch_tensor_16_torch.float32_3> : tensor<16xf32>) : !torch.vtensor<[16],f32>
    %60 = torch.vtensor.literal(dense_resource<torch_tensor_16_torch.float32_2> : tensor<16xf32>) : !torch.vtensor<[16],f32>
    %61 = torch.vtensor.literal(dense_resource<torch_tensor_16_16_3_3_torch.float32> : tensor<16x16x3x3xf32>) : !torch.vtensor<[16,16,3,3],f32>
    %float5.000000e-01 = torch.constant.float 5.000000e-01
    %int8 = torch.constant.int 8
    %62 = torch.vtensor.literal(dense<8.000000e+00> : tensor<1xf32>) : !torch.vtensor<[1],f32>
    %63 = torch.vtensor.literal(dense_resource<torch_tensor_16_torch.float32_1> : tensor<16xf32>) : !torch.vtensor<[16],f32>
    %int-1 = torch.constant.int -1
    %64 = torch.vtensor.literal(dense_resource<torch_tensor_16_torch.float32> : tensor<16xf32>) : !torch.vtensor<[16],f32>
    %float1.000980e00 = torch.constant.float 1.0009775171065494
    %float9.000000e-01 = torch.constant.float 9.000000e-01
    %float1.000000e-01 = torch.constant.float 1.000000e-01
    %float1.000000e-05 = torch.constant.float 1.000000e-05
    %true = torch.constant.bool true
    %int3 = torch.constant.int 3
    %int2 = torch.constant.int 2
    %int0 = torch.constant.int 0
    %65 = torch.vtensor.literal(dense_resource<torch_tensor_16_3_3_3_torch.float32> : tensor<16x3x3x3xf32>) : !torch.vtensor<[16,3,3,3],f32>
    %none = torch.constant.none
    %int1 = torch.constant.int 1
    %66 = torch.prim.ListConstruct %int1, %int1 : (!torch.int, !torch.int) -> !torch.list<int>
    %67 = torch.prim.ListConstruct %int1, %int1 : (!torch.int, !torch.int) -> !torch.list<int>
    %68 = torch.prim.ListConstruct %int1, %int1 : (!torch.int, !torch.int) -> !torch.list<int>
    %69 = torch.prim.ListConstruct  : () -> !torch.list<int>
    %70 = torch.aten.convolution %arg63, %65, %none, %66, %67, %68, %false, %69, %int1 : !torch.vtensor<[1,3,32,32],f32>, !torch.vtensor<[16,3,3,3],f32>, !torch.none, !torch.list<int>, !torch.list<int>, !torch.list<int>, !torch.bool, !torch.list<int>, !torch.int -> !torch.vtensor<[1,16,32,32],f32>
    %71 = torch.aten.add.Scalar %arg2, %int1, %int1 : !torch.vtensor<[],si64>, !torch.int, !torch.int -> !torch.vtensor<[],si64>
    %72 = torch.prim.ListConstruct %int0, %int2, %int3 : (!torch.int, !torch.int, !torch.int) -> !torch.list<int>
    %73 = torch.aten.to.dtype %70, %int7, %false, %false, %none : !torch.vtensor<[1,16,32,32],f32>, !torch.int, !torch.bool, !torch.bool, !torch.none -> !torch.vtensor<[1,16,32,32],f64>
    %74 = torch.aten.sum.dim_IntList %73, %72, %true, %none : !torch.vtensor<[1,16,32,32],f64>, !torch.list<int>, !torch.bool, !torch.none -> !torch.vtensor<[1,16,1,1],f64>
    %75 = torch.aten.div.Scalar %74, %int1024 : !torch.vtensor<[1,16,1,1],f64>, !torch.int -> !torch.vtensor<[1,16,1,1],f64>
    %76 = torch.aten.sub.Tensor %73, %75, %float1.000000e00 : !torch.vtensor<[1,16,32,32],f64>, !torch.vtensor<[1,16,1,1],f64>, !torch.float -> !torch.vtensor<[1,16,32,32],f64>
    %77 = torch.aten.mul.Tensor %76, %76 : !torch.vtensor<[1,16,32,32],f64>, !torch.vtensor<[1,16,32,32],f64> -> !torch.vtensor<[1,16,32,32],f64>
    %78 = torch.aten.sum.dim_IntList %77, %72, %true, %none : !torch.vtensor<[1,16,32,32],f64>, !torch.list<int>, !torch.bool, !torch.none -> !torch.vtensor<[1,16,1,1],f64>
    %79 = torch.aten.div.Scalar %78, %int1024 : !torch.vtensor<[1,16,1,1],f64>, !torch.int -> !torch.vtensor<[1,16,1,1],f64>
    %80 = torch.aten.to.dtype %79, %int6, %false, %false, %none : !torch.vtensor<[1,16,1,1],f64>, !torch.int, !torch.bool, !torch.bool, !torch.none -> !torch.vtensor<[1,16,1,1],f32>
    %81 = torch.aten.sum.dim_IntList %70, %72, %true, %none : !torch.vtensor<[1,16,32,32],f32>, !torch.list<int>, !torch.bool, !torch.none -> !torch.vtensor<[1,16,1,1],f32>
    %82 = torch.aten.div.Scalar %81, %int1024 : !torch.vtensor<[1,16,1,1],f32>, !torch.int -> !torch.vtensor<[1,16,1,1],f32>
    %83 = torch.aten.add.Scalar %80, %float1.000000e-05, %int1 : !torch.vtensor<[1,16,1,1],f32>, !torch.float, !torch.int -> !torch.vtensor<[1,16,1,1],f32>
    %84 = torch.aten.rsqrt %83 : !torch.vtensor<[1,16,1,1],f32> -> !torch.vtensor<[1,16,1,1],f32>
    %85 = torch.aten.sub.Tensor %70, %82, %int1 : !torch.vtensor<[1,16,32,32],f32>, !torch.vtensor<[1,16,1,1],f32>, !torch.int -> !torch.vtensor<[1,16,32,32],f32>
    %86 = torch.aten.mul.Tensor %85, %84 : !torch.vtensor<[1,16,32,32],f32>, !torch.vtensor<[1,16,1,1],f32> -> !torch.vtensor<[1,16,32,32],f32>
    %87 = torch.aten.squeeze.dim %82, %int3 : !torch.vtensor<[1,16,1,1],f32>, !torch.int -> !torch.vtensor<[1,16,1],f32>
    %88 = torch.aten.squeeze.dim %87, %int2 : !torch.vtensor<[1,16,1],f32>, !torch.int -> !torch.vtensor<[1,16],f32>
    %89 = torch.aten.squeeze.dim %88, %int0 : !torch.vtensor<[1,16],f32>, !torch.int -> !torch.vtensor<[16],f32>
    %90 = torch.aten.mul.Scalar %89, %float1.000000e-01 : !torch.vtensor<[16],f32>, !torch.float -> !torch.vtensor<[16],f32>
    %91 = torch.aten.mul.Scalar %arg0, %float9.000000e-01 : !torch.vtensor<[16],f32>, !torch.float -> !torch.vtensor<[16],f32>
    %92 = torch.aten.add.Tensor %90, %91, %int1 : !torch.vtensor<[16],f32>, !torch.vtensor<[16],f32>, !torch.int -> !torch.vtensor<[16],f32>
    %93 = torch.aten.squeeze.dim %80, %int3 : !torch.vtensor<[1,16,1,1],f32>, !torch.int -> !torch.vtensor<[1,16,1],f32>
    %94 = torch.aten.squeeze.dim %93, %int2 : !torch.vtensor<[1,16,1],f32>, !torch.int -> !torch.vtensor<[1,16],f32>
    %95 = torch.aten.squeeze.dim %94, %int0 : !torch.vtensor<[1,16],f32>, !torch.int -> !torch.vtensor<[16],f32>
    %96 = torch.aten.mul.Scalar %95, %float1.000980e00 : !torch.vtensor<[16],f32>, !torch.float -> !torch.vtensor<[16],f32>
    %97 = torch.aten.mul.Scalar %96, %float1.000000e-01 : !torch.vtensor<[16],f32>, !torch.float -> !torch.vtensor<[16],f32>
    %98 = torch.aten.mul.Scalar %arg1, %float9.000000e-01 : !torch.vtensor<[16],f32>, !torch.float -> !torch.vtensor<[16],f32>
    %99 = torch.aten.add.Tensor %97, %98, %int1 : !torch.vtensor<[16],f32>, !torch.vtensor<[16],f32>, !torch.int -> !torch.vtensor<[16],f32>
    %100 = torch.aten.unsqueeze %64, %int-1 : !torch.vtensor<[16],f32>, !torch.int -> !torch.vtensor<[16,1],f32>
    %101 = torch.aten.unsqueeze %100, %int-1 : !torch.vtensor<[16,1],f32>, !torch.int -> !torch.vtensor<[16,1,1],f32>
    %102 = torch.aten.mul.Tensor %86, %101 : !torch.vtensor<[1,16,32,32],f32>, !torch.vtensor<[16,1,1],f32> -> !torch.vtensor<[1,16,32,32],f32>
    %103 = torch.aten.unsqueeze %63, %int-1 : !torch.vtensor<[16],f32>, !torch.int -> !torch.vtensor<[16,1],f32>
    %104 = torch.aten.unsqueeze %103, %int-1 : !torch.vtensor<[16,1],f32>, !torch.int -> !torch.vtensor<[16,1,1],f32>
    %105 = torch.aten.add.Tensor %102, %104, %int1 : !torch.vtensor<[1,16,32,32],f32>, !torch.vtensor<[16,1,1],f32>, !torch.int -> !torch.vtensor<[1,16,32,32],f32>
    %106 = torch.aten.div.Tensor %105, %62 : !torch.vtensor<[1,16,32,32],f32>, !torch.vtensor<[1],f32> -> !torch.vtensor<[1,16,32,32],f32>
    %107 = torch.aten.clamp %106, %int0, %int1 : !torch.vtensor<[1,16,32,32],f32>, !torch.int, !torch.int -> !torch.vtensor<[1,16,32,32],f32>
    %108 = torch.aten.mul.Scalar %107, %int8 : !torch.vtensor<[1,16,32,32],f32>, !torch.int -> !torch.vtensor<[1,16,32,32],f32>
    %109 = torch.aten.add.Scalar %108, %float5.000000e-01, %int1 : !torch.vtensor<[1,16,32,32],f32>, !torch.float, !torch.int -> !torch.vtensor<[1,16,32,32],f32>
    %110 = torch.aten.floor %109 : !torch.vtensor<[1,16,32,32],f32> -> !torch.vtensor<[1,16,32,32],f32>
    %111 = torch.aten.div.Scalar %110, %int8 : !torch.vtensor<[1,16,32,32],f32>, !torch.int -> !torch.vtensor<[1,16,32,32],f32>
    %112 = torch.aten.mul.Tensor %111, %62 : !torch.vtensor<[1,16,32,32],f32>, !torch.vtensor<[1],f32> -> !torch.vtensor<[1,16,32,32],f32>
    %113 = torch.prim.ListConstruct %int1, %int1 : (!torch.int, !torch.int) -> !torch.list<int>
    %114 = torch.prim.ListConstruct %int1, %int1 : (!torch.int, !torch.int) -> !torch.list<int>
    %115 = torch.prim.ListConstruct %int1, %int1 : (!torch.int, !torch.int) -> !torch.list<int>
    %116 = torch.prim.ListConstruct  : () -> !torch.list<int>
    %117 = torch.aten.convolution %112, %61, %none, %113, %114, %115, %false, %116, %int1 : !torch.vtensor<[1,16,32,32],f32>, !torch.vtensor<[16,16,3,3],f32>, !torch.none, !torch.list<int>, !torch.list<int>, !torch.list<int>, !torch.bool, !torch.list<int>, !torch.int -> !torch.vtensor<[1,16,32,32],f32>
    %118 = torch.aten.add.Scalar %arg5, %int1, %int1 : !torch.vtensor<[],si64>, !torch.int, !torch.int -> !torch.vtensor<[],si64>
    %119 = torch.prim.ListConstruct %int0, %int2, %int3 : (!torch.int, !torch.int, !torch.int) -> !torch.list<int>
    %120 = torch.aten.to.dtype %117, %int7, %false, %false, %none : !torch.vtensor<[1,16,32,32],f32>, !torch.int, !torch.bool, !torch.bool, !torch.none -> !torch.vtensor<[1,16,32,32],f64>
    %121 = torch.aten.sum.dim_IntList %120, %119, %true, %none : !torch.vtensor<[1,16,32,32],f64>, !torch.list<int>, !torch.bool, !torch.none -> !torch.vtensor<[1,16,1,1],f64>
    %122 = torch.aten.div.Scalar %121, %int1024 : !torch.vtensor<[1,16,1,1],f64>, !torch.int -> !torch.vtensor<[1,16,1,1],f64>
    %123 = torch.aten.sub.Tensor %120, %122, %float1.000000e00 : !torch.vtensor<[1,16,32,32],f64>, !torch.vtensor<[1,16,1,1],f64>, !torch.float -> !torch.vtensor<[1,16,32,32],f64>
    %124 = torch.aten.mul.Tensor %123, %123 : !torch.vtensor<[1,16,32,32],f64>, !torch.vtensor<[1,16,32,32],f64> -> !torch.vtensor<[1,16,32,32],f64>
    %125 = torch.aten.sum.dim_IntList %124, %119, %true, %none : !torch.vtensor<[1,16,32,32],f64>, !torch.list<int>, !torch.bool, !torch.none -> !torch.vtensor<[1,16,1,1],f64>
    %126 = torch.aten.div.Scalar %125, %int1024 : !torch.vtensor<[1,16,1,1],f64>, !torch.int -> !torch.vtensor<[1,16,1,1],f64>
    %127 = torch.aten.to.dtype %126, %int6, %false, %false, %none : !torch.vtensor<[1,16,1,1],f64>, !torch.int, !torch.bool, !torch.bool, !torch.none -> !torch.vtensor<[1,16,1,1],f32>
    %128 = torch.aten.sum.dim_IntList %117, %119, %true, %none : !torch.vtensor<[1,16,32,32],f32>, !torch.list<int>, !torch.bool, !torch.none -> !torch.vtensor<[1,16,1,1],f32>
    %129 = torch.aten.div.Scalar %128, %int1024 : !torch.vtensor<[1,16,1,1],f32>, !torch.int -> !torch.vtensor<[1,16,1,1],f32>
    %130 = torch.aten.add.Scalar %127, %float1.000000e-05, %int1 : !torch.vtensor<[1,16,1,1],f32>, !torch.float, !torch.int -> !torch.vtensor<[1,16,1,1],f32>
    %131 = torch.aten.rsqrt %130 : !torch.vtensor<[1,16,1,1],f32> -> !torch.vtensor<[1,16,1,1],f32>
    %132 = torch.aten.sub.Tensor %117, %129, %int1 : !torch.vtensor<[1,16,32,32],f32>, !torch.vtensor<[1,16,1,1],f32>, !torch.int -> !torch.vtensor<[1,16,32,32],f32>
    %133 = torch.aten.mul.Tensor %132, %131 : !torch.vtensor<[1,16,32,32],f32>, !torch.vtensor<[1,16,1,1],f32> -> !torch.vtensor<[1,16,32,32],f32>
    %134 = torch.aten.squeeze.dim %129, %int3 : !torch.vtensor<[1,16,1,1],f32>, !torch.int -> !torch.vtensor<[1,16,1],f32>
    %135 = torch.aten.squeeze.dim %134, %int2 : !torch.vtensor<[1,16,1],f32>, !torch.int -> !torch.vtensor<[1,16],f32>
    %136 = torch.aten.squeeze.dim %135, %int0 : !torch.vtensor<[1,16],f32>, !torch.int -> !torch.vtensor<[16],f32>
    %137 = torch.aten.mul.Scalar %136, %float1.000000e-01 : !torch.vtensor<[16],f32>, !torch.float -> !torch.vtensor<[16],f32>
    %138 = torch.aten.mul.Scalar %arg3, %float9.000000e-01 : !torch.vtensor<[16],f32>, !torch.float -> !torch.vtensor<[16],f32>
    %139 = torch.aten.add.Tensor %137, %138, %int1 : !torch.vtensor<[16],f32>, !torch.vtensor<[16],f32>, !torch.int -> !torch.vtensor<[16],f32>
    %140 = torch.aten.squeeze.dim %127, %int3 : !torch.vtensor<[1,16,1,1],f32>, !torch.int -> !torch.vtensor<[1,16,1],f32>
    %141 = torch.aten.squeeze.dim %140, %int2 : !torch.vtensor<[1,16,1],f32>, !torch.int -> !torch.vtensor<[1,16],f32>
    %142 = torch.aten.squeeze.dim %141, %int0 : !torch.vtensor<[1,16],f32>, !torch.int -> !torch.vtensor<[16],f32>
    %143 = torch.aten.mul.Scalar %142, %float1.000980e00 : !torch.vtensor<[16],f32>, !torch.float -> !torch.vtensor<[16],f32>
    %144 = torch.aten.mul.Scalar %143, %float1.000000e-01 : !torch.vtensor<[16],f32>, !torch.float -> !torch.vtensor<[16],f32>
    %145 = torch.aten.mul.Scalar %arg4, %float9.000000e-01 : !torch.vtensor<[16],f32>, !torch.float -> !torch.vtensor<[16],f32>
    %146 = torch.aten.add.Tensor %144, %145, %int1 : !torch.vtensor<[16],f32>, !torch.vtensor<[16],f32>, !torch.int -> !torch.vtensor<[16],f32>
    %147 = torch.aten.unsqueeze %60, %int-1 : !torch.vtensor<[16],f32>, !torch.int -> !torch.vtensor<[16,1],f32>
    %148 = torch.aten.unsqueeze %147, %int-1 : !torch.vtensor<[16,1],f32>, !torch.int -> !torch.vtensor<[16,1,1],f32>
    %149 = torch.aten.mul.Tensor %133, %148 : !torch.vtensor<[1,16,32,32],f32>, !torch.vtensor<[16,1,1],f32> -> !torch.vtensor<[1,16,32,32],f32>
    %150 = torch.aten.unsqueeze %59, %int-1 : !torch.vtensor<[16],f32>, !torch.int -> !torch.vtensor<[16,1],f32>
    %151 = torch.aten.unsqueeze %150, %int-1 : !torch.vtensor<[16,1],f32>, !torch.int -> !torch.vtensor<[16,1,1],f32>
    %152 = torch.aten.add.Tensor %149, %151, %int1 : !torch.vtensor<[1,16,32,32],f32>, !torch.vtensor<[16,1,1],f32>, !torch.int -> !torch.vtensor<[1,16,32,32],f32>
    %153 = torch.aten.div.Tensor %152, %62 : !torch.vtensor<[1,16,32,32],f32>, !torch.vtensor<[1],f32> -> !torch.vtensor<[1,16,32,32],f32>
    %154 = torch.aten.clamp %153, %int0, %int1 : !torch.vtensor<[1,16,32,32],f32>, !torch.int, !torch.int -> !torch.vtensor<[1,16,32,32],f32>
    %155 = torch.aten.mul.Scalar %154, %int8 : !torch.vtensor<[1,16,32,32],f32>, !torch.int -> !torch.vtensor<[1,16,32,32],f32>
    %156 = torch.aten.add.Scalar %155, %float5.000000e-01, %int1 : !torch.vtensor<[1,16,32,32],f32>, !torch.float, !torch.int -> !torch.vtensor<[1,16,32,32],f32>
    %157 = torch.aten.floor %156 : !torch.vtensor<[1,16,32,32],f32> -> !torch.vtensor<[1,16,32,32],f32>
    %158 = torch.aten.div.Scalar %157, %int8 : !torch.vtensor<[1,16,32,32],f32>, !torch.int -> !torch.vtensor<[1,16,32,32],f32>
    %159 = torch.aten.mul.Tensor %158, %62 : !torch.vtensor<[1,16,32,32],f32>, !torch.vtensor<[1],f32> -> !torch.vtensor<[1,16,32,32],f32>
    %160 = torch.prim.ListConstruct %int1, %int1 : (!torch.int, !torch.int) -> !torch.list<int>
    %161 = torch.prim.ListConstruct %int1, %int1 : (!torch.int, !torch.int) -> !torch.list<int>
    %162 = torch.prim.ListConstruct %int1, %int1 : (!torch.int, !torch.int) -> !torch.list<int>
    %163 = torch.prim.ListConstruct  : () -> !torch.list<int>
    %164 = torch.aten.convolution %159, %58, %none, %160, %161, %162, %false, %163, %int1 : !torch.vtensor<[1,16,32,32],f32>, !torch.vtensor<[16,16,3,3],f32>, !torch.none, !torch.list<int>, !torch.list<int>, !torch.list<int>, !torch.bool, !torch.list<int>, !torch.int -> !torch.vtensor<[1,16,32,32],f32>
    %165 = torch.aten.add.Scalar %arg8, %int1, %int1 : !torch.vtensor<[],si64>, !torch.int, !torch.int -> !torch.vtensor<[],si64>
    %166 = torch.prim.ListConstruct %int0, %int2, %int3 : (!torch.int, !torch.int, !torch.int) -> !torch.list<int>
    %167 = torch.aten.to.dtype %164, %int7, %false, %false, %none : !torch.vtensor<[1,16,32,32],f32>, !torch.int, !torch.bool, !torch.bool, !torch.none -> !torch.vtensor<[1,16,32,32],f64>
    %168 = torch.aten.sum.dim_IntList %167, %166, %true, %none : !torch.vtensor<[1,16,32,32],f64>, !torch.list<int>, !torch.bool, !torch.none -> !torch.vtensor<[1,16,1,1],f64>
    %169 = torch.aten.div.Scalar %168, %int1024 : !torch.vtensor<[1,16,1,1],f64>, !torch.int -> !torch.vtensor<[1,16,1,1],f64>
    %170 = torch.aten.sub.Tensor %167, %169, %float1.000000e00 : !torch.vtensor<[1,16,32,32],f64>, !torch.vtensor<[1,16,1,1],f64>, !torch.float -> !torch.vtensor<[1,16,32,32],f64>
    %171 = torch.aten.mul.Tensor %170, %170 : !torch.vtensor<[1,16,32,32],f64>, !torch.vtensor<[1,16,32,32],f64> -> !torch.vtensor<[1,16,32,32],f64>
    %172 = torch.aten.sum.dim_IntList %171, %166, %true, %none : !torch.vtensor<[1,16,32,32],f64>, !torch.list<int>, !torch.bool, !torch.none -> !torch.vtensor<[1,16,1,1],f64>
    %173 = torch.aten.div.Scalar %172, %int1024 : !torch.vtensor<[1,16,1,1],f64>, !torch.int -> !torch.vtensor<[1,16,1,1],f64>
    %174 = torch.aten.to.dtype %173, %int6, %false, %false, %none : !torch.vtensor<[1,16,1,1],f64>, !torch.int, !torch.bool, !torch.bool, !torch.none -> !torch.vtensor<[1,16,1,1],f32>
    %175 = torch.aten.sum.dim_IntList %164, %166, %true, %none : !torch.vtensor<[1,16,32,32],f32>, !torch.list<int>, !torch.bool, !torch.none -> !torch.vtensor<[1,16,1,1],f32>
    %176 = torch.aten.div.Scalar %175, %int1024 : !torch.vtensor<[1,16,1,1],f32>, !torch.int -> !torch.vtensor<[1,16,1,1],f32>
    %177 = torch.aten.add.Scalar %174, %float1.000000e-05, %int1 : !torch.vtensor<[1,16,1,1],f32>, !torch.float, !torch.int -> !torch.vtensor<[1,16,1,1],f32>
    %178 = torch.aten.rsqrt %177 : !torch.vtensor<[1,16,1,1],f32> -> !torch.vtensor<[1,16,1,1],f32>
    %179 = torch.aten.sub.Tensor %164, %176, %int1 : !torch.vtensor<[1,16,32,32],f32>, !torch.vtensor<[1,16,1,1],f32>, !torch.int -> !torch.vtensor<[1,16,32,32],f32>
    %180 = torch.aten.mul.Tensor %179, %178 : !torch.vtensor<[1,16,32,32],f32>, !torch.vtensor<[1,16,1,1],f32> -> !torch.vtensor<[1,16,32,32],f32>
    %181 = torch.aten.squeeze.dim %176, %int3 : !torch.vtensor<[1,16,1,1],f32>, !torch.int -> !torch.vtensor<[1,16,1],f32>
    %182 = torch.aten.squeeze.dim %181, %int2 : !torch.vtensor<[1,16,1],f32>, !torch.int -> !torch.vtensor<[1,16],f32>
    %183 = torch.aten.squeeze.dim %182, %int0 : !torch.vtensor<[1,16],f32>, !torch.int -> !torch.vtensor<[16],f32>
    %184 = torch.aten.mul.Scalar %183, %float1.000000e-01 : !torch.vtensor<[16],f32>, !torch.float -> !torch.vtensor<[16],f32>
    %185 = torch.aten.mul.Scalar %arg6, %float9.000000e-01 : !torch.vtensor<[16],f32>, !torch.float -> !torch.vtensor<[16],f32>
    %186 = torch.aten.add.Tensor %184, %185, %int1 : !torch.vtensor<[16],f32>, !torch.vtensor<[16],f32>, !torch.int -> !torch.vtensor<[16],f32>
    %187 = torch.aten.squeeze.dim %174, %int3 : !torch.vtensor<[1,16,1,1],f32>, !torch.int -> !torch.vtensor<[1,16,1],f32>
    %188 = torch.aten.squeeze.dim %187, %int2 : !torch.vtensor<[1,16,1],f32>, !torch.int -> !torch.vtensor<[1,16],f32>
    %189 = torch.aten.squeeze.dim %188, %int0 : !torch.vtensor<[1,16],f32>, !torch.int -> !torch.vtensor<[16],f32>
    %190 = torch.aten.mul.Scalar %189, %float1.000980e00 : !torch.vtensor<[16],f32>, !torch.float -> !torch.vtensor<[16],f32>
    %191 = torch.aten.mul.Scalar %190, %float1.000000e-01 : !torch.vtensor<[16],f32>, !torch.float -> !torch.vtensor<[16],f32>
    %192 = torch.aten.mul.Scalar %arg7, %float9.000000e-01 : !torch.vtensor<[16],f32>, !torch.float -> !torch.vtensor<[16],f32>
    %193 = torch.aten.add.Tensor %191, %192, %int1 : !torch.vtensor<[16],f32>, !torch.vtensor<[16],f32>, !torch.int -> !torch.vtensor<[16],f32>
    %194 = torch.aten.unsqueeze %57, %int-1 : !torch.vtensor<[16],f32>, !torch.int -> !torch.vtensor<[16,1],f32>
    %195 = torch.aten.unsqueeze %194, %int-1 : !torch.vtensor<[16,1],f32>, !torch.int -> !torch.vtensor<[16,1,1],f32>
    %196 = torch.aten.mul.Tensor %180, %195 : !torch.vtensor<[1,16,32,32],f32>, !torch.vtensor<[16,1,1],f32> -> !torch.vtensor<[1,16,32,32],f32>
    %197 = torch.aten.unsqueeze %56, %int-1 : !torch.vtensor<[16],f32>, !torch.int -> !torch.vtensor<[16,1],f32>
    %198 = torch.aten.unsqueeze %197, %int-1 : !torch.vtensor<[16,1],f32>, !torch.int -> !torch.vtensor<[16,1,1],f32>
    %199 = torch.aten.add.Tensor %196, %198, %int1 : !torch.vtensor<[1,16,32,32],f32>, !torch.vtensor<[16,1,1],f32>, !torch.int -> !torch.vtensor<[1,16,32,32],f32>
    %200 = torch.aten.add.Tensor %199, %112, %int1 : !torch.vtensor<[1,16,32,32],f32>, !torch.vtensor<[1,16,32,32],f32>, !torch.int -> !torch.vtensor<[1,16,32,32],f32>
    %201 = torch.aten.div.Tensor %200, %62 : !torch.vtensor<[1,16,32,32],f32>, !torch.vtensor<[1],f32> -> !torch.vtensor<[1,16,32,32],f32>
    %202 = torch.aten.clamp %201, %int0, %int1 : !torch.vtensor<[1,16,32,32],f32>, !torch.int, !torch.int -> !torch.vtensor<[1,16,32,32],f32>
    %203 = torch.aten.mul.Scalar %202, %int8 : !torch.vtensor<[1,16,32,32],f32>, !torch.int -> !torch.vtensor<[1,16,32,32],f32>
    %204 = torch.aten.add.Scalar %203, %float5.000000e-01, %int1 : !torch.vtensor<[1,16,32,32],f32>, !torch.float, !torch.int -> !torch.vtensor<[1,16,32,32],f32>
    %205 = torch.aten.floor %204 : !torch.vtensor<[1,16,32,32],f32> -> !torch.vtensor<[1,16,32,32],f32>
    %206 = torch.aten.div.Scalar %205, %int8 : !torch.vtensor<[1,16,32,32],f32>, !torch.int -> !torch.vtensor<[1,16,32,32],f32>
    %207 = torch.aten.mul.Tensor %206, %62 : !torch.vtensor<[1,16,32,32],f32>, !torch.vtensor<[1],f32> -> !torch.vtensor<[1,16,32,32],f32>
    %208 = torch.prim.ListConstruct %int1, %int1 : (!torch.int, !torch.int) -> !torch.list<int>
    %209 = torch.prim.ListConstruct %int1, %int1 : (!torch.int, !torch.int) -> !torch.list<int>
    %210 = torch.prim.ListConstruct %int1, %int1 : (!torch.int, !torch.int) -> !torch.list<int>
    %211 = torch.prim.ListConstruct  : () -> !torch.list<int>
    %212 = torch.aten.convolution %207, %55, %none, %208, %209, %210, %false, %211, %int1 : !torch.vtensor<[1,16,32,32],f32>, !torch.vtensor<[16,16,3,3],f32>, !torch.none, !torch.list<int>, !torch.list<int>, !torch.list<int>, !torch.bool, !torch.list<int>, !torch.int -> !torch.vtensor<[1,16,32,32],f32>
    %213 = torch.aten.add.Scalar %arg11, %int1, %int1 : !torch.vtensor<[],si64>, !torch.int, !torch.int -> !torch.vtensor<[],si64>
    %214 = torch.prim.ListConstruct %int0, %int2, %int3 : (!torch.int, !torch.int, !torch.int) -> !torch.list<int>
    %215 = torch.aten.to.dtype %212, %int7, %false, %false, %none : !torch.vtensor<[1,16,32,32],f32>, !torch.int, !torch.bool, !torch.bool, !torch.none -> !torch.vtensor<[1,16,32,32],f64>
    %216 = torch.aten.sum.dim_IntList %215, %214, %true, %none : !torch.vtensor<[1,16,32,32],f64>, !torch.list<int>, !torch.bool, !torch.none -> !torch.vtensor<[1,16,1,1],f64>
    %217 = torch.aten.div.Scalar %216, %int1024 : !torch.vtensor<[1,16,1,1],f64>, !torch.int -> !torch.vtensor<[1,16,1,1],f64>
    %218 = torch.aten.sub.Tensor %215, %217, %float1.000000e00 : !torch.vtensor<[1,16,32,32],f64>, !torch.vtensor<[1,16,1,1],f64>, !torch.float -> !torch.vtensor<[1,16,32,32],f64>
    %219 = torch.aten.mul.Tensor %218, %218 : !torch.vtensor<[1,16,32,32],f64>, !torch.vtensor<[1,16,32,32],f64> -> !torch.vtensor<[1,16,32,32],f64>
    %220 = torch.aten.sum.dim_IntList %219, %214, %true, %none : !torch.vtensor<[1,16,32,32],f64>, !torch.list<int>, !torch.bool, !torch.none -> !torch.vtensor<[1,16,1,1],f64>
    %221 = torch.aten.div.Scalar %220, %int1024 : !torch.vtensor<[1,16,1,1],f64>, !torch.int -> !torch.vtensor<[1,16,1,1],f64>
    %222 = torch.aten.to.dtype %221, %int6, %false, %false, %none : !torch.vtensor<[1,16,1,1],f64>, !torch.int, !torch.bool, !torch.bool, !torch.none -> !torch.vtensor<[1,16,1,1],f32>
    %223 = torch.aten.sum.dim_IntList %212, %214, %true, %none : !torch.vtensor<[1,16,32,32],f32>, !torch.list<int>, !torch.bool, !torch.none -> !torch.vtensor<[1,16,1,1],f32>
    %224 = torch.aten.div.Scalar %223, %int1024 : !torch.vtensor<[1,16,1,1],f32>, !torch.int -> !torch.vtensor<[1,16,1,1],f32>
    %225 = torch.aten.add.Scalar %222, %float1.000000e-05, %int1 : !torch.vtensor<[1,16,1,1],f32>, !torch.float, !torch.int -> !torch.vtensor<[1,16,1,1],f32>
    %226 = torch.aten.rsqrt %225 : !torch.vtensor<[1,16,1,1],f32> -> !torch.vtensor<[1,16,1,1],f32>
    %227 = torch.aten.sub.Tensor %212, %224, %int1 : !torch.vtensor<[1,16,32,32],f32>, !torch.vtensor<[1,16,1,1],f32>, !torch.int -> !torch.vtensor<[1,16,32,32],f32>
    %228 = torch.aten.mul.Tensor %227, %226 : !torch.vtensor<[1,16,32,32],f32>, !torch.vtensor<[1,16,1,1],f32> -> !torch.vtensor<[1,16,32,32],f32>
    %229 = torch.aten.squeeze.dim %224, %int3 : !torch.vtensor<[1,16,1,1],f32>, !torch.int -> !torch.vtensor<[1,16,1],f32>
    %230 = torch.aten.squeeze.dim %229, %int2 : !torch.vtensor<[1,16,1],f32>, !torch.int -> !torch.vtensor<[1,16],f32>
    %231 = torch.aten.squeeze.dim %230, %int0 : !torch.vtensor<[1,16],f32>, !torch.int -> !torch.vtensor<[16],f32>
    %232 = torch.aten.mul.Scalar %231, %float1.000000e-01 : !torch.vtensor<[16],f32>, !torch.float -> !torch.vtensor<[16],f32>
    %233 = torch.aten.mul.Scalar %arg9, %float9.000000e-01 : !torch.vtensor<[16],f32>, !torch.float -> !torch.vtensor<[16],f32>
    %234 = torch.aten.add.Tensor %232, %233, %int1 : !torch.vtensor<[16],f32>, !torch.vtensor<[16],f32>, !torch.int -> !torch.vtensor<[16],f32>
    %235 = torch.aten.squeeze.dim %222, %int3 : !torch.vtensor<[1,16,1,1],f32>, !torch.int -> !torch.vtensor<[1,16,1],f32>
    %236 = torch.aten.squeeze.dim %235, %int2 : !torch.vtensor<[1,16,1],f32>, !torch.int -> !torch.vtensor<[1,16],f32>
    %237 = torch.aten.squeeze.dim %236, %int0 : !torch.vtensor<[1,16],f32>, !torch.int -> !torch.vtensor<[16],f32>
    %238 = torch.aten.mul.Scalar %237, %float1.000980e00 : !torch.vtensor<[16],f32>, !torch.float -> !torch.vtensor<[16],f32>
    %239 = torch.aten.mul.Scalar %238, %float1.000000e-01 : !torch.vtensor<[16],f32>, !torch.float -> !torch.vtensor<[16],f32>
    %240 = torch.aten.mul.Scalar %arg10, %float9.000000e-01 : !torch.vtensor<[16],f32>, !torch.float -> !torch.vtensor<[16],f32>
    %241 = torch.aten.add.Tensor %239, %240, %int1 : !torch.vtensor<[16],f32>, !torch.vtensor<[16],f32>, !torch.int -> !torch.vtensor<[16],f32>
    %242 = torch.aten.unsqueeze %54, %int-1 : !torch.vtensor<[16],f32>, !torch.int -> !torch.vtensor<[16,1],f32>
    %243 = torch.aten.unsqueeze %242, %int-1 : !torch.vtensor<[16,1],f32>, !torch.int -> !torch.vtensor<[16,1,1],f32>
    %244 = torch.aten.mul.Tensor %228, %243 : !torch.vtensor<[1,16,32,32],f32>, !torch.vtensor<[16,1,1],f32> -> !torch.vtensor<[1,16,32,32],f32>
    %245 = torch.aten.unsqueeze %53, %int-1 : !torch.vtensor<[16],f32>, !torch.int -> !torch.vtensor<[16,1],f32>
    %246 = torch.aten.unsqueeze %245, %int-1 : !torch.vtensor<[16,1],f32>, !torch.int -> !torch.vtensor<[16,1,1],f32>
    %247 = torch.aten.add.Tensor %244, %246, %int1 : !torch.vtensor<[1,16,32,32],f32>, !torch.vtensor<[16,1,1],f32>, !torch.int -> !torch.vtensor<[1,16,32,32],f32>
    %248 = torch.aten.div.Tensor %247, %62 : !torch.vtensor<[1,16,32,32],f32>, !torch.vtensor<[1],f32> -> !torch.vtensor<[1,16,32,32],f32>
    %249 = torch.aten.clamp %248, %int0, %int1 : !torch.vtensor<[1,16,32,32],f32>, !torch.int, !torch.int -> !torch.vtensor<[1,16,32,32],f32>
    %250 = torch.aten.mul.Scalar %249, %int8 : !torch.vtensor<[1,16,32,32],f32>, !torch.int -> !torch.vtensor<[1,16,32,32],f32>
    %251 = torch.aten.add.Scalar %250, %float5.000000e-01, %int1 : !torch.vtensor<[1,16,32,32],f32>, !torch.float, !torch.int -> !torch.vtensor<[1,16,32,32],f32>
    %252 = torch.aten.floor %251 : !torch.vtensor<[1,16,32,32],f32> -> !torch.vtensor<[1,16,32,32],f32>
    %253 = torch.aten.div.Scalar %252, %int8 : !torch.vtensor<[1,16,32,32],f32>, !torch.int -> !torch.vtensor<[1,16,32,32],f32>
    %254 = torch.aten.mul.Tensor %253, %62 : !torch.vtensor<[1,16,32,32],f32>, !torch.vtensor<[1],f32> -> !torch.vtensor<[1,16,32,32],f32>
    %255 = torch.prim.ListConstruct %int1, %int1 : (!torch.int, !torch.int) -> !torch.list<int>
    %256 = torch.prim.ListConstruct %int1, %int1 : (!torch.int, !torch.int) -> !torch.list<int>
    %257 = torch.prim.ListConstruct %int1, %int1 : (!torch.int, !torch.int) -> !torch.list<int>
    %258 = torch.prim.ListConstruct  : () -> !torch.list<int>
    %259 = torch.aten.convolution %254, %52, %none, %255, %256, %257, %false, %258, %int1 : !torch.vtensor<[1,16,32,32],f32>, !torch.vtensor<[16,16,3,3],f32>, !torch.none, !torch.list<int>, !torch.list<int>, !torch.list<int>, !torch.bool, !torch.list<int>, !torch.int -> !torch.vtensor<[1,16,32,32],f32>
    %260 = torch.aten.add.Scalar %arg14, %int1, %int1 : !torch.vtensor<[],si64>, !torch.int, !torch.int -> !torch.vtensor<[],si64>
    %261 = torch.prim.ListConstruct %int0, %int2, %int3 : (!torch.int, !torch.int, !torch.int) -> !torch.list<int>
    %262 = torch.aten.to.dtype %259, %int7, %false, %false, %none : !torch.vtensor<[1,16,32,32],f32>, !torch.int, !torch.bool, !torch.bool, !torch.none -> !torch.vtensor<[1,16,32,32],f64>
    %263 = torch.aten.sum.dim_IntList %262, %261, %true, %none : !torch.vtensor<[1,16,32,32],f64>, !torch.list<int>, !torch.bool, !torch.none -> !torch.vtensor<[1,16,1,1],f64>
    %264 = torch.aten.div.Scalar %263, %int1024 : !torch.vtensor<[1,16,1,1],f64>, !torch.int -> !torch.vtensor<[1,16,1,1],f64>
    %265 = torch.aten.sub.Tensor %262, %264, %float1.000000e00 : !torch.vtensor<[1,16,32,32],f64>, !torch.vtensor<[1,16,1,1],f64>, !torch.float -> !torch.vtensor<[1,16,32,32],f64>
    %266 = torch.aten.mul.Tensor %265, %265 : !torch.vtensor<[1,16,32,32],f64>, !torch.vtensor<[1,16,32,32],f64> -> !torch.vtensor<[1,16,32,32],f64>
    %267 = torch.aten.sum.dim_IntList %266, %261, %true, %none : !torch.vtensor<[1,16,32,32],f64>, !torch.list<int>, !torch.bool, !torch.none -> !torch.vtensor<[1,16,1,1],f64>
    %268 = torch.aten.div.Scalar %267, %int1024 : !torch.vtensor<[1,16,1,1],f64>, !torch.int -> !torch.vtensor<[1,16,1,1],f64>
    %269 = torch.aten.to.dtype %268, %int6, %false, %false, %none : !torch.vtensor<[1,16,1,1],f64>, !torch.int, !torch.bool, !torch.bool, !torch.none -> !torch.vtensor<[1,16,1,1],f32>
    %270 = torch.aten.sum.dim_IntList %259, %261, %true, %none : !torch.vtensor<[1,16,32,32],f32>, !torch.list<int>, !torch.bool, !torch.none -> !torch.vtensor<[1,16,1,1],f32>
    %271 = torch.aten.div.Scalar %270, %int1024 : !torch.vtensor<[1,16,1,1],f32>, !torch.int -> !torch.vtensor<[1,16,1,1],f32>
    %272 = torch.aten.add.Scalar %269, %float1.000000e-05, %int1 : !torch.vtensor<[1,16,1,1],f32>, !torch.float, !torch.int -> !torch.vtensor<[1,16,1,1],f32>
    %273 = torch.aten.rsqrt %272 : !torch.vtensor<[1,16,1,1],f32> -> !torch.vtensor<[1,16,1,1],f32>
    %274 = torch.aten.sub.Tensor %259, %271, %int1 : !torch.vtensor<[1,16,32,32],f32>, !torch.vtensor<[1,16,1,1],f32>, !torch.int -> !torch.vtensor<[1,16,32,32],f32>
    %275 = torch.aten.mul.Tensor %274, %273 : !torch.vtensor<[1,16,32,32],f32>, !torch.vtensor<[1,16,1,1],f32> -> !torch.vtensor<[1,16,32,32],f32>
    %276 = torch.aten.squeeze.dim %271, %int3 : !torch.vtensor<[1,16,1,1],f32>, !torch.int -> !torch.vtensor<[1,16,1],f32>
    %277 = torch.aten.squeeze.dim %276, %int2 : !torch.vtensor<[1,16,1],f32>, !torch.int -> !torch.vtensor<[1,16],f32>
    %278 = torch.aten.squeeze.dim %277, %int0 : !torch.vtensor<[1,16],f32>, !torch.int -> !torch.vtensor<[16],f32>
    %279 = torch.aten.mul.Scalar %278, %float1.000000e-01 : !torch.vtensor<[16],f32>, !torch.float -> !torch.vtensor<[16],f32>
    %280 = torch.aten.mul.Scalar %arg12, %float9.000000e-01 : !torch.vtensor<[16],f32>, !torch.float -> !torch.vtensor<[16],f32>
    %281 = torch.aten.add.Tensor %279, %280, %int1 : !torch.vtensor<[16],f32>, !torch.vtensor<[16],f32>, !torch.int -> !torch.vtensor<[16],f32>
    %282 = torch.aten.squeeze.dim %269, %int3 : !torch.vtensor<[1,16,1,1],f32>, !torch.int -> !torch.vtensor<[1,16,1],f32>
    %283 = torch.aten.squeeze.dim %282, %int2 : !torch.vtensor<[1,16,1],f32>, !torch.int -> !torch.vtensor<[1,16],f32>
    %284 = torch.aten.squeeze.dim %283, %int0 : !torch.vtensor<[1,16],f32>, !torch.int -> !torch.vtensor<[16],f32>
    %285 = torch.aten.mul.Scalar %284, %float1.000980e00 : !torch.vtensor<[16],f32>, !torch.float -> !torch.vtensor<[16],f32>
    %286 = torch.aten.mul.Scalar %285, %float1.000000e-01 : !torch.vtensor<[16],f32>, !torch.float -> !torch.vtensor<[16],f32>
    %287 = torch.aten.mul.Scalar %arg13, %float9.000000e-01 : !torch.vtensor<[16],f32>, !torch.float -> !torch.vtensor<[16],f32>
    %288 = torch.aten.add.Tensor %286, %287, %int1 : !torch.vtensor<[16],f32>, !torch.vtensor<[16],f32>, !torch.int -> !torch.vtensor<[16],f32>
    %289 = torch.aten.unsqueeze %51, %int-1 : !torch.vtensor<[16],f32>, !torch.int -> !torch.vtensor<[16,1],f32>
    %290 = torch.aten.unsqueeze %289, %int-1 : !torch.vtensor<[16,1],f32>, !torch.int -> !torch.vtensor<[16,1,1],f32>
    %291 = torch.aten.mul.Tensor %275, %290 : !torch.vtensor<[1,16,32,32],f32>, !torch.vtensor<[16,1,1],f32> -> !torch.vtensor<[1,16,32,32],f32>
    %292 = torch.aten.unsqueeze %50, %int-1 : !torch.vtensor<[16],f32>, !torch.int -> !torch.vtensor<[16,1],f32>
    %293 = torch.aten.unsqueeze %292, %int-1 : !torch.vtensor<[16,1],f32>, !torch.int -> !torch.vtensor<[16,1,1],f32>
    %294 = torch.aten.add.Tensor %291, %293, %int1 : !torch.vtensor<[1,16,32,32],f32>, !torch.vtensor<[16,1,1],f32>, !torch.int -> !torch.vtensor<[1,16,32,32],f32>
    %295 = torch.aten.add.Tensor %294, %207, %int1 : !torch.vtensor<[1,16,32,32],f32>, !torch.vtensor<[1,16,32,32],f32>, !torch.int -> !torch.vtensor<[1,16,32,32],f32>
    %296 = torch.aten.div.Tensor %295, %62 : !torch.vtensor<[1,16,32,32],f32>, !torch.vtensor<[1],f32> -> !torch.vtensor<[1,16,32,32],f32>
    %297 = torch.aten.clamp %296, %int0, %int1 : !torch.vtensor<[1,16,32,32],f32>, !torch.int, !torch.int -> !torch.vtensor<[1,16,32,32],f32>
    %298 = torch.aten.mul.Scalar %297, %int8 : !torch.vtensor<[1,16,32,32],f32>, !torch.int -> !torch.vtensor<[1,16,32,32],f32>
    %299 = torch.aten.add.Scalar %298, %float5.000000e-01, %int1 : !torch.vtensor<[1,16,32,32],f32>, !torch.float, !torch.int -> !torch.vtensor<[1,16,32,32],f32>
    %300 = torch.aten.floor %299 : !torch.vtensor<[1,16,32,32],f32> -> !torch.vtensor<[1,16,32,32],f32>
    %301 = torch.aten.div.Scalar %300, %int8 : !torch.vtensor<[1,16,32,32],f32>, !torch.int -> !torch.vtensor<[1,16,32,32],f32>
    %302 = torch.aten.mul.Tensor %301, %62 : !torch.vtensor<[1,16,32,32],f32>, !torch.vtensor<[1],f32> -> !torch.vtensor<[1,16,32,32],f32>
    %303 = torch.prim.ListConstruct %int1, %int1 : (!torch.int, !torch.int) -> !torch.list<int>
    %304 = torch.prim.ListConstruct %int1, %int1 : (!torch.int, !torch.int) -> !torch.list<int>
    %305 = torch.prim.ListConstruct %int1, %int1 : (!torch.int, !torch.int) -> !torch.list<int>
    %306 = torch.prim.ListConstruct  : () -> !torch.list<int>
    %307 = torch.aten.convolution %302, %49, %none, %303, %304, %305, %false, %306, %int1 : !torch.vtensor<[1,16,32,32],f32>, !torch.vtensor<[16,16,3,3],f32>, !torch.none, !torch.list<int>, !torch.list<int>, !torch.list<int>, !torch.bool, !torch.list<int>, !torch.int -> !torch.vtensor<[1,16,32,32],f32>
    %308 = torch.aten.add.Scalar %arg17, %int1, %int1 : !torch.vtensor<[],si64>, !torch.int, !torch.int -> !torch.vtensor<[],si64>
    %309 = torch.prim.ListConstruct %int0, %int2, %int3 : (!torch.int, !torch.int, !torch.int) -> !torch.list<int>
    %310 = torch.aten.to.dtype %307, %int7, %false, %false, %none : !torch.vtensor<[1,16,32,32],f32>, !torch.int, !torch.bool, !torch.bool, !torch.none -> !torch.vtensor<[1,16,32,32],f64>
    %311 = torch.aten.sum.dim_IntList %310, %309, %true, %none : !torch.vtensor<[1,16,32,32],f64>, !torch.list<int>, !torch.bool, !torch.none -> !torch.vtensor<[1,16,1,1],f64>
    %312 = torch.aten.div.Scalar %311, %int1024 : !torch.vtensor<[1,16,1,1],f64>, !torch.int -> !torch.vtensor<[1,16,1,1],f64>
    %313 = torch.aten.sub.Tensor %310, %312, %float1.000000e00 : !torch.vtensor<[1,16,32,32],f64>, !torch.vtensor<[1,16,1,1],f64>, !torch.float -> !torch.vtensor<[1,16,32,32],f64>
    %314 = torch.aten.mul.Tensor %313, %313 : !torch.vtensor<[1,16,32,32],f64>, !torch.vtensor<[1,16,32,32],f64> -> !torch.vtensor<[1,16,32,32],f64>
    %315 = torch.aten.sum.dim_IntList %314, %309, %true, %none : !torch.vtensor<[1,16,32,32],f64>, !torch.list<int>, !torch.bool, !torch.none -> !torch.vtensor<[1,16,1,1],f64>
    %316 = torch.aten.div.Scalar %315, %int1024 : !torch.vtensor<[1,16,1,1],f64>, !torch.int -> !torch.vtensor<[1,16,1,1],f64>
    %317 = torch.aten.to.dtype %316, %int6, %false, %false, %none : !torch.vtensor<[1,16,1,1],f64>, !torch.int, !torch.bool, !torch.bool, !torch.none -> !torch.vtensor<[1,16,1,1],f32>
    %318 = torch.aten.sum.dim_IntList %307, %309, %true, %none : !torch.vtensor<[1,16,32,32],f32>, !torch.list<int>, !torch.bool, !torch.none -> !torch.vtensor<[1,16,1,1],f32>
    %319 = torch.aten.div.Scalar %318, %int1024 : !torch.vtensor<[1,16,1,1],f32>, !torch.int -> !torch.vtensor<[1,16,1,1],f32>
    %320 = torch.aten.add.Scalar %317, %float1.000000e-05, %int1 : !torch.vtensor<[1,16,1,1],f32>, !torch.float, !torch.int -> !torch.vtensor<[1,16,1,1],f32>
    %321 = torch.aten.rsqrt %320 : !torch.vtensor<[1,16,1,1],f32> -> !torch.vtensor<[1,16,1,1],f32>
    %322 = torch.aten.sub.Tensor %307, %319, %int1 : !torch.vtensor<[1,16,32,32],f32>, !torch.vtensor<[1,16,1,1],f32>, !torch.int -> !torch.vtensor<[1,16,32,32],f32>
    %323 = torch.aten.mul.Tensor %322, %321 : !torch.vtensor<[1,16,32,32],f32>, !torch.vtensor<[1,16,1,1],f32> -> !torch.vtensor<[1,16,32,32],f32>
    %324 = torch.aten.squeeze.dim %319, %int3 : !torch.vtensor<[1,16,1,1],f32>, !torch.int -> !torch.vtensor<[1,16,1],f32>
    %325 = torch.aten.squeeze.dim %324, %int2 : !torch.vtensor<[1,16,1],f32>, !torch.int -> !torch.vtensor<[1,16],f32>
    %326 = torch.aten.squeeze.dim %325, %int0 : !torch.vtensor<[1,16],f32>, !torch.int -> !torch.vtensor<[16],f32>
    %327 = torch.aten.mul.Scalar %326, %float1.000000e-01 : !torch.vtensor<[16],f32>, !torch.float -> !torch.vtensor<[16],f32>
    %328 = torch.aten.mul.Scalar %arg15, %float9.000000e-01 : !torch.vtensor<[16],f32>, !torch.float -> !torch.vtensor<[16],f32>
    %329 = torch.aten.add.Tensor %327, %328, %int1 : !torch.vtensor<[16],f32>, !torch.vtensor<[16],f32>, !torch.int -> !torch.vtensor<[16],f32>
    %330 = torch.aten.squeeze.dim %317, %int3 : !torch.vtensor<[1,16,1,1],f32>, !torch.int -> !torch.vtensor<[1,16,1],f32>
    %331 = torch.aten.squeeze.dim %330, %int2 : !torch.vtensor<[1,16,1],f32>, !torch.int -> !torch.vtensor<[1,16],f32>
    %332 = torch.aten.squeeze.dim %331, %int0 : !torch.vtensor<[1,16],f32>, !torch.int -> !torch.vtensor<[16],f32>
    %333 = torch.aten.mul.Scalar %332, %float1.000980e00 : !torch.vtensor<[16],f32>, !torch.float -> !torch.vtensor<[16],f32>
    %334 = torch.aten.mul.Scalar %333, %float1.000000e-01 : !torch.vtensor<[16],f32>, !torch.float -> !torch.vtensor<[16],f32>
    %335 = torch.aten.mul.Scalar %arg16, %float9.000000e-01 : !torch.vtensor<[16],f32>, !torch.float -> !torch.vtensor<[16],f32>
    %336 = torch.aten.add.Tensor %334, %335, %int1 : !torch.vtensor<[16],f32>, !torch.vtensor<[16],f32>, !torch.int -> !torch.vtensor<[16],f32>
    %337 = torch.aten.unsqueeze %48, %int-1 : !torch.vtensor<[16],f32>, !torch.int -> !torch.vtensor<[16,1],f32>
    %338 = torch.aten.unsqueeze %337, %int-1 : !torch.vtensor<[16,1],f32>, !torch.int -> !torch.vtensor<[16,1,1],f32>
    %339 = torch.aten.mul.Tensor %323, %338 : !torch.vtensor<[1,16,32,32],f32>, !torch.vtensor<[16,1,1],f32> -> !torch.vtensor<[1,16,32,32],f32>
    %340 = torch.aten.unsqueeze %47, %int-1 : !torch.vtensor<[16],f32>, !torch.int -> !torch.vtensor<[16,1],f32>
    %341 = torch.aten.unsqueeze %340, %int-1 : !torch.vtensor<[16,1],f32>, !torch.int -> !torch.vtensor<[16,1,1],f32>
    %342 = torch.aten.add.Tensor %339, %341, %int1 : !torch.vtensor<[1,16,32,32],f32>, !torch.vtensor<[16,1,1],f32>, !torch.int -> !torch.vtensor<[1,16,32,32],f32>
    %343 = torch.aten.div.Tensor %342, %62 : !torch.vtensor<[1,16,32,32],f32>, !torch.vtensor<[1],f32> -> !torch.vtensor<[1,16,32,32],f32>
    %344 = torch.aten.clamp %343, %int0, %int1 : !torch.vtensor<[1,16,32,32],f32>, !torch.int, !torch.int -> !torch.vtensor<[1,16,32,32],f32>
    %345 = torch.aten.mul.Scalar %344, %int8 : !torch.vtensor<[1,16,32,32],f32>, !torch.int -> !torch.vtensor<[1,16,32,32],f32>
    %346 = torch.aten.add.Scalar %345, %float5.000000e-01, %int1 : !torch.vtensor<[1,16,32,32],f32>, !torch.float, !torch.int -> !torch.vtensor<[1,16,32,32],f32>
    %347 = torch.aten.floor %346 : !torch.vtensor<[1,16,32,32],f32> -> !torch.vtensor<[1,16,32,32],f32>
    %348 = torch.aten.div.Scalar %347, %int8 : !torch.vtensor<[1,16,32,32],f32>, !torch.int -> !torch.vtensor<[1,16,32,32],f32>
    %349 = torch.aten.mul.Tensor %348, %62 : !torch.vtensor<[1,16,32,32],f32>, !torch.vtensor<[1],f32> -> !torch.vtensor<[1,16,32,32],f32>
    %350 = torch.prim.ListConstruct %int1, %int1 : (!torch.int, !torch.int) -> !torch.list<int>
    %351 = torch.prim.ListConstruct %int1, %int1 : (!torch.int, !torch.int) -> !torch.list<int>
    %352 = torch.prim.ListConstruct %int1, %int1 : (!torch.int, !torch.int) -> !torch.list<int>
    %353 = torch.prim.ListConstruct  : () -> !torch.list<int>
    %354 = torch.aten.convolution %349, %46, %none, %350, %351, %352, %false, %353, %int1 : !torch.vtensor<[1,16,32,32],f32>, !torch.vtensor<[16,16,3,3],f32>, !torch.none, !torch.list<int>, !torch.list<int>, !torch.list<int>, !torch.bool, !torch.list<int>, !torch.int -> !torch.vtensor<[1,16,32,32],f32>
    %355 = torch.aten.add.Scalar %arg20, %int1, %int1 : !torch.vtensor<[],si64>, !torch.int, !torch.int -> !torch.vtensor<[],si64>
    %356 = torch.prim.ListConstruct %int0, %int2, %int3 : (!torch.int, !torch.int, !torch.int) -> !torch.list<int>
    %357 = torch.aten.to.dtype %354, %int7, %false, %false, %none : !torch.vtensor<[1,16,32,32],f32>, !torch.int, !torch.bool, !torch.bool, !torch.none -> !torch.vtensor<[1,16,32,32],f64>
    %358 = torch.aten.sum.dim_IntList %357, %356, %true, %none : !torch.vtensor<[1,16,32,32],f64>, !torch.list<int>, !torch.bool, !torch.none -> !torch.vtensor<[1,16,1,1],f64>
    %359 = torch.aten.div.Scalar %358, %int1024 : !torch.vtensor<[1,16,1,1],f64>, !torch.int -> !torch.vtensor<[1,16,1,1],f64>
    %360 = torch.aten.sub.Tensor %357, %359, %float1.000000e00 : !torch.vtensor<[1,16,32,32],f64>, !torch.vtensor<[1,16,1,1],f64>, !torch.float -> !torch.vtensor<[1,16,32,32],f64>
    %361 = torch.aten.mul.Tensor %360, %360 : !torch.vtensor<[1,16,32,32],f64>, !torch.vtensor<[1,16,32,32],f64> -> !torch.vtensor<[1,16,32,32],f64>
    %362 = torch.aten.sum.dim_IntList %361, %356, %true, %none : !torch.vtensor<[1,16,32,32],f64>, !torch.list<int>, !torch.bool, !torch.none -> !torch.vtensor<[1,16,1,1],f64>
    %363 = torch.aten.div.Scalar %362, %int1024 : !torch.vtensor<[1,16,1,1],f64>, !torch.int -> !torch.vtensor<[1,16,1,1],f64>
    %364 = torch.aten.to.dtype %363, %int6, %false, %false, %none : !torch.vtensor<[1,16,1,1],f64>, !torch.int, !torch.bool, !torch.bool, !torch.none -> !torch.vtensor<[1,16,1,1],f32>
    %365 = torch.aten.sum.dim_IntList %354, %356, %true, %none : !torch.vtensor<[1,16,32,32],f32>, !torch.list<int>, !torch.bool, !torch.none -> !torch.vtensor<[1,16,1,1],f32>
    %366 = torch.aten.div.Scalar %365, %int1024 : !torch.vtensor<[1,16,1,1],f32>, !torch.int -> !torch.vtensor<[1,16,1,1],f32>
    %367 = torch.aten.add.Scalar %364, %float1.000000e-05, %int1 : !torch.vtensor<[1,16,1,1],f32>, !torch.float, !torch.int -> !torch.vtensor<[1,16,1,1],f32>
    %368 = torch.aten.rsqrt %367 : !torch.vtensor<[1,16,1,1],f32> -> !torch.vtensor<[1,16,1,1],f32>
    %369 = torch.aten.sub.Tensor %354, %366, %int1 : !torch.vtensor<[1,16,32,32],f32>, !torch.vtensor<[1,16,1,1],f32>, !torch.int -> !torch.vtensor<[1,16,32,32],f32>
    %370 = torch.aten.mul.Tensor %369, %368 : !torch.vtensor<[1,16,32,32],f32>, !torch.vtensor<[1,16,1,1],f32> -> !torch.vtensor<[1,16,32,32],f32>
    %371 = torch.aten.squeeze.dim %366, %int3 : !torch.vtensor<[1,16,1,1],f32>, !torch.int -> !torch.vtensor<[1,16,1],f32>
    %372 = torch.aten.squeeze.dim %371, %int2 : !torch.vtensor<[1,16,1],f32>, !torch.int -> !torch.vtensor<[1,16],f32>
    %373 = torch.aten.squeeze.dim %372, %int0 : !torch.vtensor<[1,16],f32>, !torch.int -> !torch.vtensor<[16],f32>
    %374 = torch.aten.mul.Scalar %373, %float1.000000e-01 : !torch.vtensor<[16],f32>, !torch.float -> !torch.vtensor<[16],f32>
    %375 = torch.aten.mul.Scalar %arg18, %float9.000000e-01 : !torch.vtensor<[16],f32>, !torch.float -> !torch.vtensor<[16],f32>
    %376 = torch.aten.add.Tensor %374, %375, %int1 : !torch.vtensor<[16],f32>, !torch.vtensor<[16],f32>, !torch.int -> !torch.vtensor<[16],f32>
    %377 = torch.aten.squeeze.dim %364, %int3 : !torch.vtensor<[1,16,1,1],f32>, !torch.int -> !torch.vtensor<[1,16,1],f32>
    %378 = torch.aten.squeeze.dim %377, %int2 : !torch.vtensor<[1,16,1],f32>, !torch.int -> !torch.vtensor<[1,16],f32>
    %379 = torch.aten.squeeze.dim %378, %int0 : !torch.vtensor<[1,16],f32>, !torch.int -> !torch.vtensor<[16],f32>
    %380 = torch.aten.mul.Scalar %379, %float1.000980e00 : !torch.vtensor<[16],f32>, !torch.float -> !torch.vtensor<[16],f32>
    %381 = torch.aten.mul.Scalar %380, %float1.000000e-01 : !torch.vtensor<[16],f32>, !torch.float -> !torch.vtensor<[16],f32>
    %382 = torch.aten.mul.Scalar %arg19, %float9.000000e-01 : !torch.vtensor<[16],f32>, !torch.float -> !torch.vtensor<[16],f32>
    %383 = torch.aten.add.Tensor %381, %382, %int1 : !torch.vtensor<[16],f32>, !torch.vtensor<[16],f32>, !torch.int -> !torch.vtensor<[16],f32>
    %384 = torch.aten.unsqueeze %45, %int-1 : !torch.vtensor<[16],f32>, !torch.int -> !torch.vtensor<[16,1],f32>
    %385 = torch.aten.unsqueeze %384, %int-1 : !torch.vtensor<[16,1],f32>, !torch.int -> !torch.vtensor<[16,1,1],f32>
    %386 = torch.aten.mul.Tensor %370, %385 : !torch.vtensor<[1,16,32,32],f32>, !torch.vtensor<[16,1,1],f32> -> !torch.vtensor<[1,16,32,32],f32>
    %387 = torch.aten.unsqueeze %44, %int-1 : !torch.vtensor<[16],f32>, !torch.int -> !torch.vtensor<[16,1],f32>
    %388 = torch.aten.unsqueeze %387, %int-1 : !torch.vtensor<[16,1],f32>, !torch.int -> !torch.vtensor<[16,1,1],f32>
    %389 = torch.aten.add.Tensor %386, %388, %int1 : !torch.vtensor<[1,16,32,32],f32>, !torch.vtensor<[16,1,1],f32>, !torch.int -> !torch.vtensor<[1,16,32,32],f32>
    %390 = torch.aten.add.Tensor %389, %302, %int1 : !torch.vtensor<[1,16,32,32],f32>, !torch.vtensor<[1,16,32,32],f32>, !torch.int -> !torch.vtensor<[1,16,32,32],f32>
    %391 = torch.aten.div.Tensor %390, %62 : !torch.vtensor<[1,16,32,32],f32>, !torch.vtensor<[1],f32> -> !torch.vtensor<[1,16,32,32],f32>
    %392 = torch.aten.clamp %391, %int0, %int1 : !torch.vtensor<[1,16,32,32],f32>, !torch.int, !torch.int -> !torch.vtensor<[1,16,32,32],f32>
    %393 = torch.aten.mul.Scalar %392, %int8 : !torch.vtensor<[1,16,32,32],f32>, !torch.int -> !torch.vtensor<[1,16,32,32],f32>
    %394 = torch.aten.add.Scalar %393, %float5.000000e-01, %int1 : !torch.vtensor<[1,16,32,32],f32>, !torch.float, !torch.int -> !torch.vtensor<[1,16,32,32],f32>
    %395 = torch.aten.floor %394 : !torch.vtensor<[1,16,32,32],f32> -> !torch.vtensor<[1,16,32,32],f32>
    %396 = torch.aten.div.Scalar %395, %int8 : !torch.vtensor<[1,16,32,32],f32>, !torch.int -> !torch.vtensor<[1,16,32,32],f32>
    %397 = torch.aten.mul.Tensor %396, %62 : !torch.vtensor<[1,16,32,32],f32>, !torch.vtensor<[1],f32> -> !torch.vtensor<[1,16,32,32],f32>
    %398 = torch.prim.ListConstruct %int2, %int2 : (!torch.int, !torch.int) -> !torch.list<int>
    %399 = torch.prim.ListConstruct %int1, %int1 : (!torch.int, !torch.int) -> !torch.list<int>
    %400 = torch.prim.ListConstruct %int1, %int1 : (!torch.int, !torch.int) -> !torch.list<int>
    %401 = torch.prim.ListConstruct  : () -> !torch.list<int>
    %402 = torch.aten.convolution %397, %43, %none, %398, %399, %400, %false, %401, %int1 : !torch.vtensor<[1,16,32,32],f32>, !torch.vtensor<[32,16,3,3],f32>, !torch.none, !torch.list<int>, !torch.list<int>, !torch.list<int>, !torch.bool, !torch.list<int>, !torch.int -> !torch.vtensor<[1,32,16,16],f32>
    %403 = torch.aten.add.Scalar %arg23, %int1, %int1 : !torch.vtensor<[],si64>, !torch.int, !torch.int -> !torch.vtensor<[],si64>
    %404 = torch.prim.ListConstruct %int0, %int2, %int3 : (!torch.int, !torch.int, !torch.int) -> !torch.list<int>
    %405 = torch.aten.to.dtype %402, %int7, %false, %false, %none : !torch.vtensor<[1,32,16,16],f32>, !torch.int, !torch.bool, !torch.bool, !torch.none -> !torch.vtensor<[1,32,16,16],f64>
    %406 = torch.aten.sum.dim_IntList %405, %404, %true, %none : !torch.vtensor<[1,32,16,16],f64>, !torch.list<int>, !torch.bool, !torch.none -> !torch.vtensor<[1,32,1,1],f64>
    %407 = torch.aten.div.Scalar %406, %int256 : !torch.vtensor<[1,32,1,1],f64>, !torch.int -> !torch.vtensor<[1,32,1,1],f64>
    %408 = torch.aten.sub.Tensor %405, %407, %float1.000000e00 : !torch.vtensor<[1,32,16,16],f64>, !torch.vtensor<[1,32,1,1],f64>, !torch.float -> !torch.vtensor<[1,32,16,16],f64>
    %409 = torch.aten.mul.Tensor %408, %408 : !torch.vtensor<[1,32,16,16],f64>, !torch.vtensor<[1,32,16,16],f64> -> !torch.vtensor<[1,32,16,16],f64>
    %410 = torch.aten.sum.dim_IntList %409, %404, %true, %none : !torch.vtensor<[1,32,16,16],f64>, !torch.list<int>, !torch.bool, !torch.none -> !torch.vtensor<[1,32,1,1],f64>
    %411 = torch.aten.div.Scalar %410, %int256 : !torch.vtensor<[1,32,1,1],f64>, !torch.int -> !torch.vtensor<[1,32,1,1],f64>
    %412 = torch.aten.to.dtype %411, %int6, %false, %false, %none : !torch.vtensor<[1,32,1,1],f64>, !torch.int, !torch.bool, !torch.bool, !torch.none -> !torch.vtensor<[1,32,1,1],f32>
    %413 = torch.aten.sum.dim_IntList %402, %404, %true, %none : !torch.vtensor<[1,32,16,16],f32>, !torch.list<int>, !torch.bool, !torch.none -> !torch.vtensor<[1,32,1,1],f32>
    %414 = torch.aten.div.Scalar %413, %int256 : !torch.vtensor<[1,32,1,1],f32>, !torch.int -> !torch.vtensor<[1,32,1,1],f32>
    %415 = torch.aten.add.Scalar %412, %float1.000000e-05, %int1 : !torch.vtensor<[1,32,1,1],f32>, !torch.float, !torch.int -> !torch.vtensor<[1,32,1,1],f32>
    %416 = torch.aten.rsqrt %415 : !torch.vtensor<[1,32,1,1],f32> -> !torch.vtensor<[1,32,1,1],f32>
    %417 = torch.aten.sub.Tensor %402, %414, %int1 : !torch.vtensor<[1,32,16,16],f32>, !torch.vtensor<[1,32,1,1],f32>, !torch.int -> !torch.vtensor<[1,32,16,16],f32>
    %418 = torch.aten.mul.Tensor %417, %416 : !torch.vtensor<[1,32,16,16],f32>, !torch.vtensor<[1,32,1,1],f32> -> !torch.vtensor<[1,32,16,16],f32>
    %419 = torch.aten.squeeze.dim %414, %int3 : !torch.vtensor<[1,32,1,1],f32>, !torch.int -> !torch.vtensor<[1,32,1],f32>
    %420 = torch.aten.squeeze.dim %419, %int2 : !torch.vtensor<[1,32,1],f32>, !torch.int -> !torch.vtensor<[1,32],f32>
    %421 = torch.aten.squeeze.dim %420, %int0 : !torch.vtensor<[1,32],f32>, !torch.int -> !torch.vtensor<[32],f32>
    %422 = torch.aten.mul.Scalar %421, %float1.000000e-01 : !torch.vtensor<[32],f32>, !torch.float -> !torch.vtensor<[32],f32>
    %423 = torch.aten.mul.Scalar %arg21, %float9.000000e-01 : !torch.vtensor<[32],f32>, !torch.float -> !torch.vtensor<[32],f32>
    %424 = torch.aten.add.Tensor %422, %423, %int1 : !torch.vtensor<[32],f32>, !torch.vtensor<[32],f32>, !torch.int -> !torch.vtensor<[32],f32>
    %425 = torch.aten.squeeze.dim %412, %int3 : !torch.vtensor<[1,32,1,1],f32>, !torch.int -> !torch.vtensor<[1,32,1],f32>
    %426 = torch.aten.squeeze.dim %425, %int2 : !torch.vtensor<[1,32,1],f32>, !torch.int -> !torch.vtensor<[1,32],f32>
    %427 = torch.aten.squeeze.dim %426, %int0 : !torch.vtensor<[1,32],f32>, !torch.int -> !torch.vtensor<[32],f32>
    %428 = torch.aten.mul.Scalar %427, %float1.003920e00 : !torch.vtensor<[32],f32>, !torch.float -> !torch.vtensor<[32],f32>
    %429 = torch.aten.mul.Scalar %428, %float1.000000e-01 : !torch.vtensor<[32],f32>, !torch.float -> !torch.vtensor<[32],f32>
    %430 = torch.aten.mul.Scalar %arg22, %float9.000000e-01 : !torch.vtensor<[32],f32>, !torch.float -> !torch.vtensor<[32],f32>
    %431 = torch.aten.add.Tensor %429, %430, %int1 : !torch.vtensor<[32],f32>, !torch.vtensor<[32],f32>, !torch.int -> !torch.vtensor<[32],f32>
    %432 = torch.aten.unsqueeze %42, %int-1 : !torch.vtensor<[32],f32>, !torch.int -> !torch.vtensor<[32,1],f32>
    %433 = torch.aten.unsqueeze %432, %int-1 : !torch.vtensor<[32,1],f32>, !torch.int -> !torch.vtensor<[32,1,1],f32>
    %434 = torch.aten.mul.Tensor %418, %433 : !torch.vtensor<[1,32,16,16],f32>, !torch.vtensor<[32,1,1],f32> -> !torch.vtensor<[1,32,16,16],f32>
    %435 = torch.aten.unsqueeze %41, %int-1 : !torch.vtensor<[32],f32>, !torch.int -> !torch.vtensor<[32,1],f32>
    %436 = torch.aten.unsqueeze %435, %int-1 : !torch.vtensor<[32,1],f32>, !torch.int -> !torch.vtensor<[32,1,1],f32>
    %437 = torch.aten.add.Tensor %434, %436, %int1 : !torch.vtensor<[1,32,16,16],f32>, !torch.vtensor<[32,1,1],f32>, !torch.int -> !torch.vtensor<[1,32,16,16],f32>
    %438 = torch.aten.div.Tensor %437, %62 : !torch.vtensor<[1,32,16,16],f32>, !torch.vtensor<[1],f32> -> !torch.vtensor<[1,32,16,16],f32>
    %439 = torch.aten.clamp %438, %int0, %int1 : !torch.vtensor<[1,32,16,16],f32>, !torch.int, !torch.int -> !torch.vtensor<[1,32,16,16],f32>
    %440 = torch.aten.mul.Scalar %439, %int8 : !torch.vtensor<[1,32,16,16],f32>, !torch.int -> !torch.vtensor<[1,32,16,16],f32>
    %441 = torch.aten.add.Scalar %440, %float5.000000e-01, %int1 : !torch.vtensor<[1,32,16,16],f32>, !torch.float, !torch.int -> !torch.vtensor<[1,32,16,16],f32>
    %442 = torch.aten.floor %441 : !torch.vtensor<[1,32,16,16],f32> -> !torch.vtensor<[1,32,16,16],f32>
    %443 = torch.aten.div.Scalar %442, %int8 : !torch.vtensor<[1,32,16,16],f32>, !torch.int -> !torch.vtensor<[1,32,16,16],f32>
    %444 = torch.aten.mul.Tensor %443, %62 : !torch.vtensor<[1,32,16,16],f32>, !torch.vtensor<[1],f32> -> !torch.vtensor<[1,32,16,16],f32>
    %445 = torch.prim.ListConstruct %int1, %int1 : (!torch.int, !torch.int) -> !torch.list<int>
    %446 = torch.prim.ListConstruct %int1, %int1 : (!torch.int, !torch.int) -> !torch.list<int>
    %447 = torch.prim.ListConstruct %int1, %int1 : (!torch.int, !torch.int) -> !torch.list<int>
    %448 = torch.prim.ListConstruct  : () -> !torch.list<int>
    %449 = torch.aten.convolution %444, %40, %none, %445, %446, %447, %false, %448, %int1 : !torch.vtensor<[1,32,16,16],f32>, !torch.vtensor<[32,32,3,3],f32>, !torch.none, !torch.list<int>, !torch.list<int>, !torch.list<int>, !torch.bool, !torch.list<int>, !torch.int -> !torch.vtensor<[1,32,16,16],f32>
    %450 = torch.aten.add.Scalar %arg26, %int1, %int1 : !torch.vtensor<[],si64>, !torch.int, !torch.int -> !torch.vtensor<[],si64>
    %451 = torch.prim.ListConstruct %int0, %int2, %int3 : (!torch.int, !torch.int, !torch.int) -> !torch.list<int>
    %452 = torch.aten.to.dtype %449, %int7, %false, %false, %none : !torch.vtensor<[1,32,16,16],f32>, !torch.int, !torch.bool, !torch.bool, !torch.none -> !torch.vtensor<[1,32,16,16],f64>
    %453 = torch.aten.sum.dim_IntList %452, %451, %true, %none : !torch.vtensor<[1,32,16,16],f64>, !torch.list<int>, !torch.bool, !torch.none -> !torch.vtensor<[1,32,1,1],f64>
    %454 = torch.aten.div.Scalar %453, %int256 : !torch.vtensor<[1,32,1,1],f64>, !torch.int -> !torch.vtensor<[1,32,1,1],f64>
    %455 = torch.aten.sub.Tensor %452, %454, %float1.000000e00 : !torch.vtensor<[1,32,16,16],f64>, !torch.vtensor<[1,32,1,1],f64>, !torch.float -> !torch.vtensor<[1,32,16,16],f64>
    %456 = torch.aten.mul.Tensor %455, %455 : !torch.vtensor<[1,32,16,16],f64>, !torch.vtensor<[1,32,16,16],f64> -> !torch.vtensor<[1,32,16,16],f64>
    %457 = torch.aten.sum.dim_IntList %456, %451, %true, %none : !torch.vtensor<[1,32,16,16],f64>, !torch.list<int>, !torch.bool, !torch.none -> !torch.vtensor<[1,32,1,1],f64>
    %458 = torch.aten.div.Scalar %457, %int256 : !torch.vtensor<[1,32,1,1],f64>, !torch.int -> !torch.vtensor<[1,32,1,1],f64>
    %459 = torch.aten.to.dtype %458, %int6, %false, %false, %none : !torch.vtensor<[1,32,1,1],f64>, !torch.int, !torch.bool, !torch.bool, !torch.none -> !torch.vtensor<[1,32,1,1],f32>
    %460 = torch.aten.sum.dim_IntList %449, %451, %true, %none : !torch.vtensor<[1,32,16,16],f32>, !torch.list<int>, !torch.bool, !torch.none -> !torch.vtensor<[1,32,1,1],f32>
    %461 = torch.aten.div.Scalar %460, %int256 : !torch.vtensor<[1,32,1,1],f32>, !torch.int -> !torch.vtensor<[1,32,1,1],f32>
    %462 = torch.aten.add.Scalar %459, %float1.000000e-05, %int1 : !torch.vtensor<[1,32,1,1],f32>, !torch.float, !torch.int -> !torch.vtensor<[1,32,1,1],f32>
    %463 = torch.aten.rsqrt %462 : !torch.vtensor<[1,32,1,1],f32> -> !torch.vtensor<[1,32,1,1],f32>
    %464 = torch.aten.sub.Tensor %449, %461, %int1 : !torch.vtensor<[1,32,16,16],f32>, !torch.vtensor<[1,32,1,1],f32>, !torch.int -> !torch.vtensor<[1,32,16,16],f32>
    %465 = torch.aten.mul.Tensor %464, %463 : !torch.vtensor<[1,32,16,16],f32>, !torch.vtensor<[1,32,1,1],f32> -> !torch.vtensor<[1,32,16,16],f32>
    %466 = torch.aten.squeeze.dim %461, %int3 : !torch.vtensor<[1,32,1,1],f32>, !torch.int -> !torch.vtensor<[1,32,1],f32>
    %467 = torch.aten.squeeze.dim %466, %int2 : !torch.vtensor<[1,32,1],f32>, !torch.int -> !torch.vtensor<[1,32],f32>
    %468 = torch.aten.squeeze.dim %467, %int0 : !torch.vtensor<[1,32],f32>, !torch.int -> !torch.vtensor<[32],f32>
    %469 = torch.aten.mul.Scalar %468, %float1.000000e-01 : !torch.vtensor<[32],f32>, !torch.float -> !torch.vtensor<[32],f32>
    %470 = torch.aten.mul.Scalar %arg24, %float9.000000e-01 : !torch.vtensor<[32],f32>, !torch.float -> !torch.vtensor<[32],f32>
    %471 = torch.aten.add.Tensor %469, %470, %int1 : !torch.vtensor<[32],f32>, !torch.vtensor<[32],f32>, !torch.int -> !torch.vtensor<[32],f32>
    %472 = torch.aten.squeeze.dim %459, %int3 : !torch.vtensor<[1,32,1,1],f32>, !torch.int -> !torch.vtensor<[1,32,1],f32>
    %473 = torch.aten.squeeze.dim %472, %int2 : !torch.vtensor<[1,32,1],f32>, !torch.int -> !torch.vtensor<[1,32],f32>
    %474 = torch.aten.squeeze.dim %473, %int0 : !torch.vtensor<[1,32],f32>, !torch.int -> !torch.vtensor<[32],f32>
    %475 = torch.aten.mul.Scalar %474, %float1.003920e00 : !torch.vtensor<[32],f32>, !torch.float -> !torch.vtensor<[32],f32>
    %476 = torch.aten.mul.Scalar %475, %float1.000000e-01 : !torch.vtensor<[32],f32>, !torch.float -> !torch.vtensor<[32],f32>
    %477 = torch.aten.mul.Scalar %arg25, %float9.000000e-01 : !torch.vtensor<[32],f32>, !torch.float -> !torch.vtensor<[32],f32>
    %478 = torch.aten.add.Tensor %476, %477, %int1 : !torch.vtensor<[32],f32>, !torch.vtensor<[32],f32>, !torch.int -> !torch.vtensor<[32],f32>
    %479 = torch.aten.unsqueeze %39, %int-1 : !torch.vtensor<[32],f32>, !torch.int -> !torch.vtensor<[32,1],f32>
    %480 = torch.aten.unsqueeze %479, %int-1 : !torch.vtensor<[32,1],f32>, !torch.int -> !torch.vtensor<[32,1,1],f32>
    %481 = torch.aten.mul.Tensor %465, %480 : !torch.vtensor<[1,32,16,16],f32>, !torch.vtensor<[32,1,1],f32> -> !torch.vtensor<[1,32,16,16],f32>
    %482 = torch.aten.unsqueeze %38, %int-1 : !torch.vtensor<[32],f32>, !torch.int -> !torch.vtensor<[32,1],f32>
    %483 = torch.aten.unsqueeze %482, %int-1 : !torch.vtensor<[32,1],f32>, !torch.int -> !torch.vtensor<[32,1,1],f32>
    %484 = torch.aten.add.Tensor %481, %483, %int1 : !torch.vtensor<[1,32,16,16],f32>, !torch.vtensor<[32,1,1],f32>, !torch.int -> !torch.vtensor<[1,32,16,16],f32>
    %485 = torch.prim.ListConstruct %int2, %int2 : (!torch.int, !torch.int) -> !torch.list<int>
    %486 = torch.prim.ListConstruct %int0, %int0 : (!torch.int, !torch.int) -> !torch.list<int>
    %487 = torch.prim.ListConstruct %int1, %int1 : (!torch.int, !torch.int) -> !torch.list<int>
    %488 = torch.prim.ListConstruct  : () -> !torch.list<int>
    %489 = torch.aten.convolution %397, %37, %none, %485, %486, %487, %false, %488, %int1 : !torch.vtensor<[1,16,32,32],f32>, !torch.vtensor<[32,16,1,1],f32>, !torch.none, !torch.list<int>, !torch.list<int>, !torch.list<int>, !torch.bool, !torch.list<int>, !torch.int -> !torch.vtensor<[1,32,16,16],f32>
    %490 = torch.aten.add.Scalar %arg29, %int1, %int1 : !torch.vtensor<[],si64>, !torch.int, !torch.int -> !torch.vtensor<[],si64>
    %491 = torch.prim.ListConstruct %int0, %int2, %int3 : (!torch.int, !torch.int, !torch.int) -> !torch.list<int>
    %492 = torch.aten.to.dtype %489, %int7, %false, %false, %none : !torch.vtensor<[1,32,16,16],f32>, !torch.int, !torch.bool, !torch.bool, !torch.none -> !torch.vtensor<[1,32,16,16],f64>
    %493 = torch.aten.sum.dim_IntList %492, %491, %true, %none : !torch.vtensor<[1,32,16,16],f64>, !torch.list<int>, !torch.bool, !torch.none -> !torch.vtensor<[1,32,1,1],f64>
    %494 = torch.aten.div.Scalar %493, %int256 : !torch.vtensor<[1,32,1,1],f64>, !torch.int -> !torch.vtensor<[1,32,1,1],f64>
    %495 = torch.aten.sub.Tensor %492, %494, %float1.000000e00 : !torch.vtensor<[1,32,16,16],f64>, !torch.vtensor<[1,32,1,1],f64>, !torch.float -> !torch.vtensor<[1,32,16,16],f64>
    %496 = torch.aten.mul.Tensor %495, %495 : !torch.vtensor<[1,32,16,16],f64>, !torch.vtensor<[1,32,16,16],f64> -> !torch.vtensor<[1,32,16,16],f64>
    %497 = torch.aten.sum.dim_IntList %496, %491, %true, %none : !torch.vtensor<[1,32,16,16],f64>, !torch.list<int>, !torch.bool, !torch.none -> !torch.vtensor<[1,32,1,1],f64>
    %498 = torch.aten.div.Scalar %497, %int256 : !torch.vtensor<[1,32,1,1],f64>, !torch.int -> !torch.vtensor<[1,32,1,1],f64>
    %499 = torch.aten.to.dtype %498, %int6, %false, %false, %none : !torch.vtensor<[1,32,1,1],f64>, !torch.int, !torch.bool, !torch.bool, !torch.none -> !torch.vtensor<[1,32,1,1],f32>
    %500 = torch.aten.sum.dim_IntList %489, %491, %true, %none : !torch.vtensor<[1,32,16,16],f32>, !torch.list<int>, !torch.bool, !torch.none -> !torch.vtensor<[1,32,1,1],f32>
    %501 = torch.aten.div.Scalar %500, %int256 : !torch.vtensor<[1,32,1,1],f32>, !torch.int -> !torch.vtensor<[1,32,1,1],f32>
    %502 = torch.aten.add.Scalar %499, %float1.000000e-05, %int1 : !torch.vtensor<[1,32,1,1],f32>, !torch.float, !torch.int -> !torch.vtensor<[1,32,1,1],f32>
    %503 = torch.aten.rsqrt %502 : !torch.vtensor<[1,32,1,1],f32> -> !torch.vtensor<[1,32,1,1],f32>
    %504 = torch.aten.sub.Tensor %489, %501, %int1 : !torch.vtensor<[1,32,16,16],f32>, !torch.vtensor<[1,32,1,1],f32>, !torch.int -> !torch.vtensor<[1,32,16,16],f32>
    %505 = torch.aten.mul.Tensor %504, %503 : !torch.vtensor<[1,32,16,16],f32>, !torch.vtensor<[1,32,1,1],f32> -> !torch.vtensor<[1,32,16,16],f32>
    %506 = torch.aten.squeeze.dim %501, %int3 : !torch.vtensor<[1,32,1,1],f32>, !torch.int -> !torch.vtensor<[1,32,1],f32>
    %507 = torch.aten.squeeze.dim %506, %int2 : !torch.vtensor<[1,32,1],f32>, !torch.int -> !torch.vtensor<[1,32],f32>
    %508 = torch.aten.squeeze.dim %507, %int0 : !torch.vtensor<[1,32],f32>, !torch.int -> !torch.vtensor<[32],f32>
    %509 = torch.aten.mul.Scalar %508, %float1.000000e-01 : !torch.vtensor<[32],f32>, !torch.float -> !torch.vtensor<[32],f32>
    %510 = torch.aten.mul.Scalar %arg27, %float9.000000e-01 : !torch.vtensor<[32],f32>, !torch.float -> !torch.vtensor<[32],f32>
    %511 = torch.aten.add.Tensor %509, %510, %int1 : !torch.vtensor<[32],f32>, !torch.vtensor<[32],f32>, !torch.int -> !torch.vtensor<[32],f32>
    %512 = torch.aten.squeeze.dim %499, %int3 : !torch.vtensor<[1,32,1,1],f32>, !torch.int -> !torch.vtensor<[1,32,1],f32>
    %513 = torch.aten.squeeze.dim %512, %int2 : !torch.vtensor<[1,32,1],f32>, !torch.int -> !torch.vtensor<[1,32],f32>
    %514 = torch.aten.squeeze.dim %513, %int0 : !torch.vtensor<[1,32],f32>, !torch.int -> !torch.vtensor<[32],f32>
    %515 = torch.aten.mul.Scalar %514, %float1.003920e00 : !torch.vtensor<[32],f32>, !torch.float -> !torch.vtensor<[32],f32>
    %516 = torch.aten.mul.Scalar %515, %float1.000000e-01 : !torch.vtensor<[32],f32>, !torch.float -> !torch.vtensor<[32],f32>
    %517 = torch.aten.mul.Scalar %arg28, %float9.000000e-01 : !torch.vtensor<[32],f32>, !torch.float -> !torch.vtensor<[32],f32>
    %518 = torch.aten.add.Tensor %516, %517, %int1 : !torch.vtensor<[32],f32>, !torch.vtensor<[32],f32>, !torch.int -> !torch.vtensor<[32],f32>
    %519 = torch.aten.unsqueeze %36, %int-1 : !torch.vtensor<[32],f32>, !torch.int -> !torch.vtensor<[32,1],f32>
    %520 = torch.aten.unsqueeze %519, %int-1 : !torch.vtensor<[32,1],f32>, !torch.int -> !torch.vtensor<[32,1,1],f32>
    %521 = torch.aten.mul.Tensor %505, %520 : !torch.vtensor<[1,32,16,16],f32>, !torch.vtensor<[32,1,1],f32> -> !torch.vtensor<[1,32,16,16],f32>
    %522 = torch.aten.unsqueeze %35, %int-1 : !torch.vtensor<[32],f32>, !torch.int -> !torch.vtensor<[32,1],f32>
    %523 = torch.aten.unsqueeze %522, %int-1 : !torch.vtensor<[32,1],f32>, !torch.int -> !torch.vtensor<[32,1,1],f32>
    %524 = torch.aten.add.Tensor %521, %523, %int1 : !torch.vtensor<[1,32,16,16],f32>, !torch.vtensor<[32,1,1],f32>, !torch.int -> !torch.vtensor<[1,32,16,16],f32>
    %525 = torch.aten.add.Tensor %484, %524, %int1 : !torch.vtensor<[1,32,16,16],f32>, !torch.vtensor<[1,32,16,16],f32>, !torch.int -> !torch.vtensor<[1,32,16,16],f32>
    %526 = torch.aten.div.Tensor %525, %62 : !torch.vtensor<[1,32,16,16],f32>, !torch.vtensor<[1],f32> -> !torch.vtensor<[1,32,16,16],f32>
    %527 = torch.aten.clamp %526, %int0, %int1 : !torch.vtensor<[1,32,16,16],f32>, !torch.int, !torch.int -> !torch.vtensor<[1,32,16,16],f32>
    %528 = torch.aten.mul.Scalar %527, %int8 : !torch.vtensor<[1,32,16,16],f32>, !torch.int -> !torch.vtensor<[1,32,16,16],f32>
    %529 = torch.aten.add.Scalar %528, %float5.000000e-01, %int1 : !torch.vtensor<[1,32,16,16],f32>, !torch.float, !torch.int -> !torch.vtensor<[1,32,16,16],f32>
    %530 = torch.aten.floor %529 : !torch.vtensor<[1,32,16,16],f32> -> !torch.vtensor<[1,32,16,16],f32>
    %531 = torch.aten.div.Scalar %530, %int8 : !torch.vtensor<[1,32,16,16],f32>, !torch.int -> !torch.vtensor<[1,32,16,16],f32>
    %532 = torch.aten.mul.Tensor %531, %62 : !torch.vtensor<[1,32,16,16],f32>, !torch.vtensor<[1],f32> -> !torch.vtensor<[1,32,16,16],f32>
    %533 = torch.prim.ListConstruct %int1, %int1 : (!torch.int, !torch.int) -> !torch.list<int>
    %534 = torch.prim.ListConstruct %int1, %int1 : (!torch.int, !torch.int) -> !torch.list<int>
    %535 = torch.prim.ListConstruct %int1, %int1 : (!torch.int, !torch.int) -> !torch.list<int>
    %536 = torch.prim.ListConstruct  : () -> !torch.list<int>
    %537 = torch.aten.convolution %532, %34, %none, %533, %534, %535, %false, %536, %int1 : !torch.vtensor<[1,32,16,16],f32>, !torch.vtensor<[32,32,3,3],f32>, !torch.none, !torch.list<int>, !torch.list<int>, !torch.list<int>, !torch.bool, !torch.list<int>, !torch.int -> !torch.vtensor<[1,32,16,16],f32>
    %538 = torch.aten.add.Scalar %arg32, %int1, %int1 : !torch.vtensor<[],si64>, !torch.int, !torch.int -> !torch.vtensor<[],si64>
    %539 = torch.prim.ListConstruct %int0, %int2, %int3 : (!torch.int, !torch.int, !torch.int) -> !torch.list<int>
    %540 = torch.aten.to.dtype %537, %int7, %false, %false, %none : !torch.vtensor<[1,32,16,16],f32>, !torch.int, !torch.bool, !torch.bool, !torch.none -> !torch.vtensor<[1,32,16,16],f64>
    %541 = torch.aten.sum.dim_IntList %540, %539, %true, %none : !torch.vtensor<[1,32,16,16],f64>, !torch.list<int>, !torch.bool, !torch.none -> !torch.vtensor<[1,32,1,1],f64>
    %542 = torch.aten.div.Scalar %541, %int256 : !torch.vtensor<[1,32,1,1],f64>, !torch.int -> !torch.vtensor<[1,32,1,1],f64>
    %543 = torch.aten.sub.Tensor %540, %542, %float1.000000e00 : !torch.vtensor<[1,32,16,16],f64>, !torch.vtensor<[1,32,1,1],f64>, !torch.float -> !torch.vtensor<[1,32,16,16],f64>
    %544 = torch.aten.mul.Tensor %543, %543 : !torch.vtensor<[1,32,16,16],f64>, !torch.vtensor<[1,32,16,16],f64> -> !torch.vtensor<[1,32,16,16],f64>
    %545 = torch.aten.sum.dim_IntList %544, %539, %true, %none : !torch.vtensor<[1,32,16,16],f64>, !torch.list<int>, !torch.bool, !torch.none -> !torch.vtensor<[1,32,1,1],f64>
    %546 = torch.aten.div.Scalar %545, %int256 : !torch.vtensor<[1,32,1,1],f64>, !torch.int -> !torch.vtensor<[1,32,1,1],f64>
    %547 = torch.aten.to.dtype %546, %int6, %false, %false, %none : !torch.vtensor<[1,32,1,1],f64>, !torch.int, !torch.bool, !torch.bool, !torch.none -> !torch.vtensor<[1,32,1,1],f32>
    %548 = torch.aten.sum.dim_IntList %537, %539, %true, %none : !torch.vtensor<[1,32,16,16],f32>, !torch.list<int>, !torch.bool, !torch.none -> !torch.vtensor<[1,32,1,1],f32>
    %549 = torch.aten.div.Scalar %548, %int256 : !torch.vtensor<[1,32,1,1],f32>, !torch.int -> !torch.vtensor<[1,32,1,1],f32>
    %550 = torch.aten.add.Scalar %547, %float1.000000e-05, %int1 : !torch.vtensor<[1,32,1,1],f32>, !torch.float, !torch.int -> !torch.vtensor<[1,32,1,1],f32>
    %551 = torch.aten.rsqrt %550 : !torch.vtensor<[1,32,1,1],f32> -> !torch.vtensor<[1,32,1,1],f32>
    %552 = torch.aten.sub.Tensor %537, %549, %int1 : !torch.vtensor<[1,32,16,16],f32>, !torch.vtensor<[1,32,1,1],f32>, !torch.int -> !torch.vtensor<[1,32,16,16],f32>
    %553 = torch.aten.mul.Tensor %552, %551 : !torch.vtensor<[1,32,16,16],f32>, !torch.vtensor<[1,32,1,1],f32> -> !torch.vtensor<[1,32,16,16],f32>
    %554 = torch.aten.squeeze.dim %549, %int3 : !torch.vtensor<[1,32,1,1],f32>, !torch.int -> !torch.vtensor<[1,32,1],f32>
    %555 = torch.aten.squeeze.dim %554, %int2 : !torch.vtensor<[1,32,1],f32>, !torch.int -> !torch.vtensor<[1,32],f32>
    %556 = torch.aten.squeeze.dim %555, %int0 : !torch.vtensor<[1,32],f32>, !torch.int -> !torch.vtensor<[32],f32>
    %557 = torch.aten.mul.Scalar %556, %float1.000000e-01 : !torch.vtensor<[32],f32>, !torch.float -> !torch.vtensor<[32],f32>
    %558 = torch.aten.mul.Scalar %arg30, %float9.000000e-01 : !torch.vtensor<[32],f32>, !torch.float -> !torch.vtensor<[32],f32>
    %559 = torch.aten.add.Tensor %557, %558, %int1 : !torch.vtensor<[32],f32>, !torch.vtensor<[32],f32>, !torch.int -> !torch.vtensor<[32],f32>
    %560 = torch.aten.squeeze.dim %547, %int3 : !torch.vtensor<[1,32,1,1],f32>, !torch.int -> !torch.vtensor<[1,32,1],f32>
    %561 = torch.aten.squeeze.dim %560, %int2 : !torch.vtensor<[1,32,1],f32>, !torch.int -> !torch.vtensor<[1,32],f32>
    %562 = torch.aten.squeeze.dim %561, %int0 : !torch.vtensor<[1,32],f32>, !torch.int -> !torch.vtensor<[32],f32>
    %563 = torch.aten.mul.Scalar %562, %float1.003920e00 : !torch.vtensor<[32],f32>, !torch.float -> !torch.vtensor<[32],f32>
    %564 = torch.aten.mul.Scalar %563, %float1.000000e-01 : !torch.vtensor<[32],f32>, !torch.float -> !torch.vtensor<[32],f32>
    %565 = torch.aten.mul.Scalar %arg31, %float9.000000e-01 : !torch.vtensor<[32],f32>, !torch.float -> !torch.vtensor<[32],f32>
    %566 = torch.aten.add.Tensor %564, %565, %int1 : !torch.vtensor<[32],f32>, !torch.vtensor<[32],f32>, !torch.int -> !torch.vtensor<[32],f32>
    %567 = torch.aten.unsqueeze %33, %int-1 : !torch.vtensor<[32],f32>, !torch.int -> !torch.vtensor<[32,1],f32>
    %568 = torch.aten.unsqueeze %567, %int-1 : !torch.vtensor<[32,1],f32>, !torch.int -> !torch.vtensor<[32,1,1],f32>
    %569 = torch.aten.mul.Tensor %553, %568 : !torch.vtensor<[1,32,16,16],f32>, !torch.vtensor<[32,1,1],f32> -> !torch.vtensor<[1,32,16,16],f32>
    %570 = torch.aten.unsqueeze %32, %int-1 : !torch.vtensor<[32],f32>, !torch.int -> !torch.vtensor<[32,1],f32>
    %571 = torch.aten.unsqueeze %570, %int-1 : !torch.vtensor<[32,1],f32>, !torch.int -> !torch.vtensor<[32,1,1],f32>
    %572 = torch.aten.add.Tensor %569, %571, %int1 : !torch.vtensor<[1,32,16,16],f32>, !torch.vtensor<[32,1,1],f32>, !torch.int -> !torch.vtensor<[1,32,16,16],f32>
    %573 = torch.aten.div.Tensor %572, %62 : !torch.vtensor<[1,32,16,16],f32>, !torch.vtensor<[1],f32> -> !torch.vtensor<[1,32,16,16],f32>
    %574 = torch.aten.clamp %573, %int0, %int1 : !torch.vtensor<[1,32,16,16],f32>, !torch.int, !torch.int -> !torch.vtensor<[1,32,16,16],f32>
    %575 = torch.aten.mul.Scalar %574, %int8 : !torch.vtensor<[1,32,16,16],f32>, !torch.int -> !torch.vtensor<[1,32,16,16],f32>
    %576 = torch.aten.add.Scalar %575, %float5.000000e-01, %int1 : !torch.vtensor<[1,32,16,16],f32>, !torch.float, !torch.int -> !torch.vtensor<[1,32,16,16],f32>
    %577 = torch.aten.floor %576 : !torch.vtensor<[1,32,16,16],f32> -> !torch.vtensor<[1,32,16,16],f32>
    %578 = torch.aten.div.Scalar %577, %int8 : !torch.vtensor<[1,32,16,16],f32>, !torch.int -> !torch.vtensor<[1,32,16,16],f32>
    %579 = torch.aten.mul.Tensor %578, %62 : !torch.vtensor<[1,32,16,16],f32>, !torch.vtensor<[1],f32> -> !torch.vtensor<[1,32,16,16],f32>
    %580 = torch.prim.ListConstruct %int1, %int1 : (!torch.int, !torch.int) -> !torch.list<int>
    %581 = torch.prim.ListConstruct %int1, %int1 : (!torch.int, !torch.int) -> !torch.list<int>
    %582 = torch.prim.ListConstruct %int1, %int1 : (!torch.int, !torch.int) -> !torch.list<int>
    %583 = torch.prim.ListConstruct  : () -> !torch.list<int>
    %584 = torch.aten.convolution %579, %31, %none, %580, %581, %582, %false, %583, %int1 : !torch.vtensor<[1,32,16,16],f32>, !torch.vtensor<[32,32,3,3],f32>, !torch.none, !torch.list<int>, !torch.list<int>, !torch.list<int>, !torch.bool, !torch.list<int>, !torch.int -> !torch.vtensor<[1,32,16,16],f32>
    %585 = torch.aten.add.Scalar %arg35, %int1, %int1 : !torch.vtensor<[],si64>, !torch.int, !torch.int -> !torch.vtensor<[],si64>
    %586 = torch.prim.ListConstruct %int0, %int2, %int3 : (!torch.int, !torch.int, !torch.int) -> !torch.list<int>
    %587 = torch.aten.to.dtype %584, %int7, %false, %false, %none : !torch.vtensor<[1,32,16,16],f32>, !torch.int, !torch.bool, !torch.bool, !torch.none -> !torch.vtensor<[1,32,16,16],f64>
    %588 = torch.aten.sum.dim_IntList %587, %586, %true, %none : !torch.vtensor<[1,32,16,16],f64>, !torch.list<int>, !torch.bool, !torch.none -> !torch.vtensor<[1,32,1,1],f64>
    %589 = torch.aten.div.Scalar %588, %int256 : !torch.vtensor<[1,32,1,1],f64>, !torch.int -> !torch.vtensor<[1,32,1,1],f64>
    %590 = torch.aten.sub.Tensor %587, %589, %float1.000000e00 : !torch.vtensor<[1,32,16,16],f64>, !torch.vtensor<[1,32,1,1],f64>, !torch.float -> !torch.vtensor<[1,32,16,16],f64>
    %591 = torch.aten.mul.Tensor %590, %590 : !torch.vtensor<[1,32,16,16],f64>, !torch.vtensor<[1,32,16,16],f64> -> !torch.vtensor<[1,32,16,16],f64>
    %592 = torch.aten.sum.dim_IntList %591, %586, %true, %none : !torch.vtensor<[1,32,16,16],f64>, !torch.list<int>, !torch.bool, !torch.none -> !torch.vtensor<[1,32,1,1],f64>
    %593 = torch.aten.div.Scalar %592, %int256 : !torch.vtensor<[1,32,1,1],f64>, !torch.int -> !torch.vtensor<[1,32,1,1],f64>
    %594 = torch.aten.to.dtype %593, %int6, %false, %false, %none : !torch.vtensor<[1,32,1,1],f64>, !torch.int, !torch.bool, !torch.bool, !torch.none -> !torch.vtensor<[1,32,1,1],f32>
    %595 = torch.aten.sum.dim_IntList %584, %586, %true, %none : !torch.vtensor<[1,32,16,16],f32>, !torch.list<int>, !torch.bool, !torch.none -> !torch.vtensor<[1,32,1,1],f32>
    %596 = torch.aten.div.Scalar %595, %int256 : !torch.vtensor<[1,32,1,1],f32>, !torch.int -> !torch.vtensor<[1,32,1,1],f32>
    %597 = torch.aten.add.Scalar %594, %float1.000000e-05, %int1 : !torch.vtensor<[1,32,1,1],f32>, !torch.float, !torch.int -> !torch.vtensor<[1,32,1,1],f32>
    %598 = torch.aten.rsqrt %597 : !torch.vtensor<[1,32,1,1],f32> -> !torch.vtensor<[1,32,1,1],f32>
    %599 = torch.aten.sub.Tensor %584, %596, %int1 : !torch.vtensor<[1,32,16,16],f32>, !torch.vtensor<[1,32,1,1],f32>, !torch.int -> !torch.vtensor<[1,32,16,16],f32>
    %600 = torch.aten.mul.Tensor %599, %598 : !torch.vtensor<[1,32,16,16],f32>, !torch.vtensor<[1,32,1,1],f32> -> !torch.vtensor<[1,32,16,16],f32>
    %601 = torch.aten.squeeze.dim %596, %int3 : !torch.vtensor<[1,32,1,1],f32>, !torch.int -> !torch.vtensor<[1,32,1],f32>
    %602 = torch.aten.squeeze.dim %601, %int2 : !torch.vtensor<[1,32,1],f32>, !torch.int -> !torch.vtensor<[1,32],f32>
    %603 = torch.aten.squeeze.dim %602, %int0 : !torch.vtensor<[1,32],f32>, !torch.int -> !torch.vtensor<[32],f32>
    %604 = torch.aten.mul.Scalar %603, %float1.000000e-01 : !torch.vtensor<[32],f32>, !torch.float -> !torch.vtensor<[32],f32>
    %605 = torch.aten.mul.Scalar %arg33, %float9.000000e-01 : !torch.vtensor<[32],f32>, !torch.float -> !torch.vtensor<[32],f32>
    %606 = torch.aten.add.Tensor %604, %605, %int1 : !torch.vtensor<[32],f32>, !torch.vtensor<[32],f32>, !torch.int -> !torch.vtensor<[32],f32>
    %607 = torch.aten.squeeze.dim %594, %int3 : !torch.vtensor<[1,32,1,1],f32>, !torch.int -> !torch.vtensor<[1,32,1],f32>
    %608 = torch.aten.squeeze.dim %607, %int2 : !torch.vtensor<[1,32,1],f32>, !torch.int -> !torch.vtensor<[1,32],f32>
    %609 = torch.aten.squeeze.dim %608, %int0 : !torch.vtensor<[1,32],f32>, !torch.int -> !torch.vtensor<[32],f32>
    %610 = torch.aten.mul.Scalar %609, %float1.003920e00 : !torch.vtensor<[32],f32>, !torch.float -> !torch.vtensor<[32],f32>
    %611 = torch.aten.mul.Scalar %610, %float1.000000e-01 : !torch.vtensor<[32],f32>, !torch.float -> !torch.vtensor<[32],f32>
    %612 = torch.aten.mul.Scalar %arg34, %float9.000000e-01 : !torch.vtensor<[32],f32>, !torch.float -> !torch.vtensor<[32],f32>
    %613 = torch.aten.add.Tensor %611, %612, %int1 : !torch.vtensor<[32],f32>, !torch.vtensor<[32],f32>, !torch.int -> !torch.vtensor<[32],f32>
    %614 = torch.aten.unsqueeze %30, %int-1 : !torch.vtensor<[32],f32>, !torch.int -> !torch.vtensor<[32,1],f32>
    %615 = torch.aten.unsqueeze %614, %int-1 : !torch.vtensor<[32,1],f32>, !torch.int -> !torch.vtensor<[32,1,1],f32>
    %616 = torch.aten.mul.Tensor %600, %615 : !torch.vtensor<[1,32,16,16],f32>, !torch.vtensor<[32,1,1],f32> -> !torch.vtensor<[1,32,16,16],f32>
    %617 = torch.aten.unsqueeze %29, %int-1 : !torch.vtensor<[32],f32>, !torch.int -> !torch.vtensor<[32,1],f32>
    %618 = torch.aten.unsqueeze %617, %int-1 : !torch.vtensor<[32,1],f32>, !torch.int -> !torch.vtensor<[32,1,1],f32>
    %619 = torch.aten.add.Tensor %616, %618, %int1 : !torch.vtensor<[1,32,16,16],f32>, !torch.vtensor<[32,1,1],f32>, !torch.int -> !torch.vtensor<[1,32,16,16],f32>
    %620 = torch.aten.add.Tensor %619, %532, %int1 : !torch.vtensor<[1,32,16,16],f32>, !torch.vtensor<[1,32,16,16],f32>, !torch.int -> !torch.vtensor<[1,32,16,16],f32>
    %621 = torch.aten.div.Tensor %620, %62 : !torch.vtensor<[1,32,16,16],f32>, !torch.vtensor<[1],f32> -> !torch.vtensor<[1,32,16,16],f32>
    %622 = torch.aten.clamp %621, %int0, %int1 : !torch.vtensor<[1,32,16,16],f32>, !torch.int, !torch.int -> !torch.vtensor<[1,32,16,16],f32>
    %623 = torch.aten.mul.Scalar %622, %int8 : !torch.vtensor<[1,32,16,16],f32>, !torch.int -> !torch.vtensor<[1,32,16,16],f32>
    %624 = torch.aten.add.Scalar %623, %float5.000000e-01, %int1 : !torch.vtensor<[1,32,16,16],f32>, !torch.float, !torch.int -> !torch.vtensor<[1,32,16,16],f32>
    %625 = torch.aten.floor %624 : !torch.vtensor<[1,32,16,16],f32> -> !torch.vtensor<[1,32,16,16],f32>
    %626 = torch.aten.div.Scalar %625, %int8 : !torch.vtensor<[1,32,16,16],f32>, !torch.int -> !torch.vtensor<[1,32,16,16],f32>
    %627 = torch.aten.mul.Tensor %626, %62 : !torch.vtensor<[1,32,16,16],f32>, !torch.vtensor<[1],f32> -> !torch.vtensor<[1,32,16,16],f32>
    %628 = torch.prim.ListConstruct %int1, %int1 : (!torch.int, !torch.int) -> !torch.list<int>
    %629 = torch.prim.ListConstruct %int1, %int1 : (!torch.int, !torch.int) -> !torch.list<int>
    %630 = torch.prim.ListConstruct %int1, %int1 : (!torch.int, !torch.int) -> !torch.list<int>
    %631 = torch.prim.ListConstruct  : () -> !torch.list<int>
    %632 = torch.aten.convolution %627, %28, %none, %628, %629, %630, %false, %631, %int1 : !torch.vtensor<[1,32,16,16],f32>, !torch.vtensor<[32,32,3,3],f32>, !torch.none, !torch.list<int>, !torch.list<int>, !torch.list<int>, !torch.bool, !torch.list<int>, !torch.int -> !torch.vtensor<[1,32,16,16],f32>
    %633 = torch.aten.add.Scalar %arg38, %int1, %int1 : !torch.vtensor<[],si64>, !torch.int, !torch.int -> !torch.vtensor<[],si64>
    %634 = torch.prim.ListConstruct %int0, %int2, %int3 : (!torch.int, !torch.int, !torch.int) -> !torch.list<int>
    %635 = torch.aten.to.dtype %632, %int7, %false, %false, %none : !torch.vtensor<[1,32,16,16],f32>, !torch.int, !torch.bool, !torch.bool, !torch.none -> !torch.vtensor<[1,32,16,16],f64>
    %636 = torch.aten.sum.dim_IntList %635, %634, %true, %none : !torch.vtensor<[1,32,16,16],f64>, !torch.list<int>, !torch.bool, !torch.none -> !torch.vtensor<[1,32,1,1],f64>
    %637 = torch.aten.div.Scalar %636, %int256 : !torch.vtensor<[1,32,1,1],f64>, !torch.int -> !torch.vtensor<[1,32,1,1],f64>
    %638 = torch.aten.sub.Tensor %635, %637, %float1.000000e00 : !torch.vtensor<[1,32,16,16],f64>, !torch.vtensor<[1,32,1,1],f64>, !torch.float -> !torch.vtensor<[1,32,16,16],f64>
    %639 = torch.aten.mul.Tensor %638, %638 : !torch.vtensor<[1,32,16,16],f64>, !torch.vtensor<[1,32,16,16],f64> -> !torch.vtensor<[1,32,16,16],f64>
    %640 = torch.aten.sum.dim_IntList %639, %634, %true, %none : !torch.vtensor<[1,32,16,16],f64>, !torch.list<int>, !torch.bool, !torch.none -> !torch.vtensor<[1,32,1,1],f64>
    %641 = torch.aten.div.Scalar %640, %int256 : !torch.vtensor<[1,32,1,1],f64>, !torch.int -> !torch.vtensor<[1,32,1,1],f64>
    %642 = torch.aten.to.dtype %641, %int6, %false, %false, %none : !torch.vtensor<[1,32,1,1],f64>, !torch.int, !torch.bool, !torch.bool, !torch.none -> !torch.vtensor<[1,32,1,1],f32>
    %643 = torch.aten.sum.dim_IntList %632, %634, %true, %none : !torch.vtensor<[1,32,16,16],f32>, !torch.list<int>, !torch.bool, !torch.none -> !torch.vtensor<[1,32,1,1],f32>
    %644 = torch.aten.div.Scalar %643, %int256 : !torch.vtensor<[1,32,1,1],f32>, !torch.int -> !torch.vtensor<[1,32,1,1],f32>
    %645 = torch.aten.add.Scalar %642, %float1.000000e-05, %int1 : !torch.vtensor<[1,32,1,1],f32>, !torch.float, !torch.int -> !torch.vtensor<[1,32,1,1],f32>
    %646 = torch.aten.rsqrt %645 : !torch.vtensor<[1,32,1,1],f32> -> !torch.vtensor<[1,32,1,1],f32>
    %647 = torch.aten.sub.Tensor %632, %644, %int1 : !torch.vtensor<[1,32,16,16],f32>, !torch.vtensor<[1,32,1,1],f32>, !torch.int -> !torch.vtensor<[1,32,16,16],f32>
    %648 = torch.aten.mul.Tensor %647, %646 : !torch.vtensor<[1,32,16,16],f32>, !torch.vtensor<[1,32,1,1],f32> -> !torch.vtensor<[1,32,16,16],f32>
    %649 = torch.aten.squeeze.dim %644, %int3 : !torch.vtensor<[1,32,1,1],f32>, !torch.int -> !torch.vtensor<[1,32,1],f32>
    %650 = torch.aten.squeeze.dim %649, %int2 : !torch.vtensor<[1,32,1],f32>, !torch.int -> !torch.vtensor<[1,32],f32>
    %651 = torch.aten.squeeze.dim %650, %int0 : !torch.vtensor<[1,32],f32>, !torch.int -> !torch.vtensor<[32],f32>
    %652 = torch.aten.mul.Scalar %651, %float1.000000e-01 : !torch.vtensor<[32],f32>, !torch.float -> !torch.vtensor<[32],f32>
    %653 = torch.aten.mul.Scalar %arg36, %float9.000000e-01 : !torch.vtensor<[32],f32>, !torch.float -> !torch.vtensor<[32],f32>
    %654 = torch.aten.add.Tensor %652, %653, %int1 : !torch.vtensor<[32],f32>, !torch.vtensor<[32],f32>, !torch.int -> !torch.vtensor<[32],f32>
    %655 = torch.aten.squeeze.dim %642, %int3 : !torch.vtensor<[1,32,1,1],f32>, !torch.int -> !torch.vtensor<[1,32,1],f32>
    %656 = torch.aten.squeeze.dim %655, %int2 : !torch.vtensor<[1,32,1],f32>, !torch.int -> !torch.vtensor<[1,32],f32>
    %657 = torch.aten.squeeze.dim %656, %int0 : !torch.vtensor<[1,32],f32>, !torch.int -> !torch.vtensor<[32],f32>
    %658 = torch.aten.mul.Scalar %657, %float1.003920e00 : !torch.vtensor<[32],f32>, !torch.float -> !torch.vtensor<[32],f32>
    %659 = torch.aten.mul.Scalar %658, %float1.000000e-01 : !torch.vtensor<[32],f32>, !torch.float -> !torch.vtensor<[32],f32>
    %660 = torch.aten.mul.Scalar %arg37, %float9.000000e-01 : !torch.vtensor<[32],f32>, !torch.float -> !torch.vtensor<[32],f32>
    %661 = torch.aten.add.Tensor %659, %660, %int1 : !torch.vtensor<[32],f32>, !torch.vtensor<[32],f32>, !torch.int -> !torch.vtensor<[32],f32>
    %662 = torch.aten.unsqueeze %27, %int-1 : !torch.vtensor<[32],f32>, !torch.int -> !torch.vtensor<[32,1],f32>
    %663 = torch.aten.unsqueeze %662, %int-1 : !torch.vtensor<[32,1],f32>, !torch.int -> !torch.vtensor<[32,1,1],f32>
    %664 = torch.aten.mul.Tensor %648, %663 : !torch.vtensor<[1,32,16,16],f32>, !torch.vtensor<[32,1,1],f32> -> !torch.vtensor<[1,32,16,16],f32>
    %665 = torch.aten.unsqueeze %26, %int-1 : !torch.vtensor<[32],f32>, !torch.int -> !torch.vtensor<[32,1],f32>
    %666 = torch.aten.unsqueeze %665, %int-1 : !torch.vtensor<[32,1],f32>, !torch.int -> !torch.vtensor<[32,1,1],f32>
    %667 = torch.aten.add.Tensor %664, %666, %int1 : !torch.vtensor<[1,32,16,16],f32>, !torch.vtensor<[32,1,1],f32>, !torch.int -> !torch.vtensor<[1,32,16,16],f32>
    %668 = torch.aten.div.Tensor %667, %62 : !torch.vtensor<[1,32,16,16],f32>, !torch.vtensor<[1],f32> -> !torch.vtensor<[1,32,16,16],f32>
    %669 = torch.aten.clamp %668, %int0, %int1 : !torch.vtensor<[1,32,16,16],f32>, !torch.int, !torch.int -> !torch.vtensor<[1,32,16,16],f32>
    %670 = torch.aten.mul.Scalar %669, %int8 : !torch.vtensor<[1,32,16,16],f32>, !torch.int -> !torch.vtensor<[1,32,16,16],f32>
    %671 = torch.aten.add.Scalar %670, %float5.000000e-01, %int1 : !torch.vtensor<[1,32,16,16],f32>, !torch.float, !torch.int -> !torch.vtensor<[1,32,16,16],f32>
    %672 = torch.aten.floor %671 : !torch.vtensor<[1,32,16,16],f32> -> !torch.vtensor<[1,32,16,16],f32>
    %673 = torch.aten.div.Scalar %672, %int8 : !torch.vtensor<[1,32,16,16],f32>, !torch.int -> !torch.vtensor<[1,32,16,16],f32>
    %674 = torch.aten.mul.Tensor %673, %62 : !torch.vtensor<[1,32,16,16],f32>, !torch.vtensor<[1],f32> -> !torch.vtensor<[1,32,16,16],f32>
    %675 = torch.prim.ListConstruct %int1, %int1 : (!torch.int, !torch.int) -> !torch.list<int>
    %676 = torch.prim.ListConstruct %int1, %int1 : (!torch.int, !torch.int) -> !torch.list<int>
    %677 = torch.prim.ListConstruct %int1, %int1 : (!torch.int, !torch.int) -> !torch.list<int>
    %678 = torch.prim.ListConstruct  : () -> !torch.list<int>
    %679 = torch.aten.convolution %674, %25, %none, %675, %676, %677, %false, %678, %int1 : !torch.vtensor<[1,32,16,16],f32>, !torch.vtensor<[32,32,3,3],f32>, !torch.none, !torch.list<int>, !torch.list<int>, !torch.list<int>, !torch.bool, !torch.list<int>, !torch.int -> !torch.vtensor<[1,32,16,16],f32>
    %680 = torch.aten.add.Scalar %arg41, %int1, %int1 : !torch.vtensor<[],si64>, !torch.int, !torch.int -> !torch.vtensor<[],si64>
    %681 = torch.prim.ListConstruct %int0, %int2, %int3 : (!torch.int, !torch.int, !torch.int) -> !torch.list<int>
    %682 = torch.aten.to.dtype %679, %int7, %false, %false, %none : !torch.vtensor<[1,32,16,16],f32>, !torch.int, !torch.bool, !torch.bool, !torch.none -> !torch.vtensor<[1,32,16,16],f64>
    %683 = torch.aten.sum.dim_IntList %682, %681, %true, %none : !torch.vtensor<[1,32,16,16],f64>, !torch.list<int>, !torch.bool, !torch.none -> !torch.vtensor<[1,32,1,1],f64>
    %684 = torch.aten.div.Scalar %683, %int256 : !torch.vtensor<[1,32,1,1],f64>, !torch.int -> !torch.vtensor<[1,32,1,1],f64>
    %685 = torch.aten.sub.Tensor %682, %684, %float1.000000e00 : !torch.vtensor<[1,32,16,16],f64>, !torch.vtensor<[1,32,1,1],f64>, !torch.float -> !torch.vtensor<[1,32,16,16],f64>
    %686 = torch.aten.mul.Tensor %685, %685 : !torch.vtensor<[1,32,16,16],f64>, !torch.vtensor<[1,32,16,16],f64> -> !torch.vtensor<[1,32,16,16],f64>
    %687 = torch.aten.sum.dim_IntList %686, %681, %true, %none : !torch.vtensor<[1,32,16,16],f64>, !torch.list<int>, !torch.bool, !torch.none -> !torch.vtensor<[1,32,1,1],f64>
    %688 = torch.aten.div.Scalar %687, %int256 : !torch.vtensor<[1,32,1,1],f64>, !torch.int -> !torch.vtensor<[1,32,1,1],f64>
    %689 = torch.aten.to.dtype %688, %int6, %false, %false, %none : !torch.vtensor<[1,32,1,1],f64>, !torch.int, !torch.bool, !torch.bool, !torch.none -> !torch.vtensor<[1,32,1,1],f32>
    %690 = torch.aten.sum.dim_IntList %679, %681, %true, %none : !torch.vtensor<[1,32,16,16],f32>, !torch.list<int>, !torch.bool, !torch.none -> !torch.vtensor<[1,32,1,1],f32>
    %691 = torch.aten.div.Scalar %690, %int256 : !torch.vtensor<[1,32,1,1],f32>, !torch.int -> !torch.vtensor<[1,32,1,1],f32>
    %692 = torch.aten.add.Scalar %689, %float1.000000e-05, %int1 : !torch.vtensor<[1,32,1,1],f32>, !torch.float, !torch.int -> !torch.vtensor<[1,32,1,1],f32>
    %693 = torch.aten.rsqrt %692 : !torch.vtensor<[1,32,1,1],f32> -> !torch.vtensor<[1,32,1,1],f32>
    %694 = torch.aten.sub.Tensor %679, %691, %int1 : !torch.vtensor<[1,32,16,16],f32>, !torch.vtensor<[1,32,1,1],f32>, !torch.int -> !torch.vtensor<[1,32,16,16],f32>
    %695 = torch.aten.mul.Tensor %694, %693 : !torch.vtensor<[1,32,16,16],f32>, !torch.vtensor<[1,32,1,1],f32> -> !torch.vtensor<[1,32,16,16],f32>
    %696 = torch.aten.squeeze.dim %691, %int3 : !torch.vtensor<[1,32,1,1],f32>, !torch.int -> !torch.vtensor<[1,32,1],f32>
    %697 = torch.aten.squeeze.dim %696, %int2 : !torch.vtensor<[1,32,1],f32>, !torch.int -> !torch.vtensor<[1,32],f32>
    %698 = torch.aten.squeeze.dim %697, %int0 : !torch.vtensor<[1,32],f32>, !torch.int -> !torch.vtensor<[32],f32>
    %699 = torch.aten.mul.Scalar %698, %float1.000000e-01 : !torch.vtensor<[32],f32>, !torch.float -> !torch.vtensor<[32],f32>
    %700 = torch.aten.mul.Scalar %arg39, %float9.000000e-01 : !torch.vtensor<[32],f32>, !torch.float -> !torch.vtensor<[32],f32>
    %701 = torch.aten.add.Tensor %699, %700, %int1 : !torch.vtensor<[32],f32>, !torch.vtensor<[32],f32>, !torch.int -> !torch.vtensor<[32],f32>
    %702 = torch.aten.squeeze.dim %689, %int3 : !torch.vtensor<[1,32,1,1],f32>, !torch.int -> !torch.vtensor<[1,32,1],f32>
    %703 = torch.aten.squeeze.dim %702, %int2 : !torch.vtensor<[1,32,1],f32>, !torch.int -> !torch.vtensor<[1,32],f32>
    %704 = torch.aten.squeeze.dim %703, %int0 : !torch.vtensor<[1,32],f32>, !torch.int -> !torch.vtensor<[32],f32>
    %705 = torch.aten.mul.Scalar %704, %float1.003920e00 : !torch.vtensor<[32],f32>, !torch.float -> !torch.vtensor<[32],f32>
    %706 = torch.aten.mul.Scalar %705, %float1.000000e-01 : !torch.vtensor<[32],f32>, !torch.float -> !torch.vtensor<[32],f32>
    %707 = torch.aten.mul.Scalar %arg40, %float9.000000e-01 : !torch.vtensor<[32],f32>, !torch.float -> !torch.vtensor<[32],f32>
    %708 = torch.aten.add.Tensor %706, %707, %int1 : !torch.vtensor<[32],f32>, !torch.vtensor<[32],f32>, !torch.int -> !torch.vtensor<[32],f32>
    %709 = torch.aten.unsqueeze %24, %int-1 : !torch.vtensor<[32],f32>, !torch.int -> !torch.vtensor<[32,1],f32>
    %710 = torch.aten.unsqueeze %709, %int-1 : !torch.vtensor<[32,1],f32>, !torch.int -> !torch.vtensor<[32,1,1],f32>
    %711 = torch.aten.mul.Tensor %695, %710 : !torch.vtensor<[1,32,16,16],f32>, !torch.vtensor<[32,1,1],f32> -> !torch.vtensor<[1,32,16,16],f32>
    %712 = torch.aten.unsqueeze %23, %int-1 : !torch.vtensor<[32],f32>, !torch.int -> !torch.vtensor<[32,1],f32>
    %713 = torch.aten.unsqueeze %712, %int-1 : !torch.vtensor<[32,1],f32>, !torch.int -> !torch.vtensor<[32,1,1],f32>
    %714 = torch.aten.add.Tensor %711, %713, %int1 : !torch.vtensor<[1,32,16,16],f32>, !torch.vtensor<[32,1,1],f32>, !torch.int -> !torch.vtensor<[1,32,16,16],f32>
    %715 = torch.aten.add.Tensor %714, %627, %int1 : !torch.vtensor<[1,32,16,16],f32>, !torch.vtensor<[1,32,16,16],f32>, !torch.int -> !torch.vtensor<[1,32,16,16],f32>
    %716 = torch.aten.div.Tensor %715, %62 : !torch.vtensor<[1,32,16,16],f32>, !torch.vtensor<[1],f32> -> !torch.vtensor<[1,32,16,16],f32>
    %717 = torch.aten.clamp %716, %int0, %int1 : !torch.vtensor<[1,32,16,16],f32>, !torch.int, !torch.int -> !torch.vtensor<[1,32,16,16],f32>
    %718 = torch.aten.mul.Scalar %717, %int8 : !torch.vtensor<[1,32,16,16],f32>, !torch.int -> !torch.vtensor<[1,32,16,16],f32>
    %719 = torch.aten.add.Scalar %718, %float5.000000e-01, %int1 : !torch.vtensor<[1,32,16,16],f32>, !torch.float, !torch.int -> !torch.vtensor<[1,32,16,16],f32>
    %720 = torch.aten.floor %719 : !torch.vtensor<[1,32,16,16],f32> -> !torch.vtensor<[1,32,16,16],f32>
    %721 = torch.aten.div.Scalar %720, %int8 : !torch.vtensor<[1,32,16,16],f32>, !torch.int -> !torch.vtensor<[1,32,16,16],f32>
    %722 = torch.aten.mul.Tensor %721, %62 : !torch.vtensor<[1,32,16,16],f32>, !torch.vtensor<[1],f32> -> !torch.vtensor<[1,32,16,16],f32>
    %723 = torch.prim.ListConstruct %int2, %int2 : (!torch.int, !torch.int) -> !torch.list<int>
    %724 = torch.prim.ListConstruct %int1, %int1 : (!torch.int, !torch.int) -> !torch.list<int>
    %725 = torch.prim.ListConstruct %int1, %int1 : (!torch.int, !torch.int) -> !torch.list<int>
    %726 = torch.prim.ListConstruct  : () -> !torch.list<int>
    %727 = torch.aten.convolution %722, %22, %none, %723, %724, %725, %false, %726, %int1 : !torch.vtensor<[1,32,16,16],f32>, !torch.vtensor<[64,32,3,3],f32>, !torch.none, !torch.list<int>, !torch.list<int>, !torch.list<int>, !torch.bool, !torch.list<int>, !torch.int -> !torch.vtensor<[1,64,8,8],f32>
    %728 = torch.aten.add.Scalar %arg44, %int1, %int1 : !torch.vtensor<[],si64>, !torch.int, !torch.int -> !torch.vtensor<[],si64>
    %729 = torch.prim.ListConstruct %int0, %int2, %int3 : (!torch.int, !torch.int, !torch.int) -> !torch.list<int>
    %730 = torch.aten.to.dtype %727, %int7, %false, %false, %none : !torch.vtensor<[1,64,8,8],f32>, !torch.int, !torch.bool, !torch.bool, !torch.none -> !torch.vtensor<[1,64,8,8],f64>
    %731 = torch.aten.sum.dim_IntList %730, %729, %true, %none : !torch.vtensor<[1,64,8,8],f64>, !torch.list<int>, !torch.bool, !torch.none -> !torch.vtensor<[1,64,1,1],f64>
    %732 = torch.aten.div.Scalar %731, %int64 : !torch.vtensor<[1,64,1,1],f64>, !torch.int -> !torch.vtensor<[1,64,1,1],f64>
    %733 = torch.aten.sub.Tensor %730, %732, %float1.000000e00 : !torch.vtensor<[1,64,8,8],f64>, !torch.vtensor<[1,64,1,1],f64>, !torch.float -> !torch.vtensor<[1,64,8,8],f64>
    %734 = torch.aten.mul.Tensor %733, %733 : !torch.vtensor<[1,64,8,8],f64>, !torch.vtensor<[1,64,8,8],f64> -> !torch.vtensor<[1,64,8,8],f64>
    %735 = torch.aten.sum.dim_IntList %734, %729, %true, %none : !torch.vtensor<[1,64,8,8],f64>, !torch.list<int>, !torch.bool, !torch.none -> !torch.vtensor<[1,64,1,1],f64>
    %736 = torch.aten.div.Scalar %735, %int64 : !torch.vtensor<[1,64,1,1],f64>, !torch.int -> !torch.vtensor<[1,64,1,1],f64>
    %737 = torch.aten.to.dtype %736, %int6, %false, %false, %none : !torch.vtensor<[1,64,1,1],f64>, !torch.int, !torch.bool, !torch.bool, !torch.none -> !torch.vtensor<[1,64,1,1],f32>
    %738 = torch.aten.sum.dim_IntList %727, %729, %true, %none : !torch.vtensor<[1,64,8,8],f32>, !torch.list<int>, !torch.bool, !torch.none -> !torch.vtensor<[1,64,1,1],f32>
    %739 = torch.aten.div.Scalar %738, %int64 : !torch.vtensor<[1,64,1,1],f32>, !torch.int -> !torch.vtensor<[1,64,1,1],f32>
    %740 = torch.aten.add.Scalar %737, %float1.000000e-05, %int1 : !torch.vtensor<[1,64,1,1],f32>, !torch.float, !torch.int -> !torch.vtensor<[1,64,1,1],f32>
    %741 = torch.aten.rsqrt %740 : !torch.vtensor<[1,64,1,1],f32> -> !torch.vtensor<[1,64,1,1],f32>
    %742 = torch.aten.sub.Tensor %727, %739, %int1 : !torch.vtensor<[1,64,8,8],f32>, !torch.vtensor<[1,64,1,1],f32>, !torch.int -> !torch.vtensor<[1,64,8,8],f32>
    %743 = torch.aten.mul.Tensor %742, %741 : !torch.vtensor<[1,64,8,8],f32>, !torch.vtensor<[1,64,1,1],f32> -> !torch.vtensor<[1,64,8,8],f32>
    %744 = torch.aten.squeeze.dim %739, %int3 : !torch.vtensor<[1,64,1,1],f32>, !torch.int -> !torch.vtensor<[1,64,1],f32>
    %745 = torch.aten.squeeze.dim %744, %int2 : !torch.vtensor<[1,64,1],f32>, !torch.int -> !torch.vtensor<[1,64],f32>
    %746 = torch.aten.squeeze.dim %745, %int0 : !torch.vtensor<[1,64],f32>, !torch.int -> !torch.vtensor<[64],f32>
    %747 = torch.aten.mul.Scalar %746, %float1.000000e-01 : !torch.vtensor<[64],f32>, !torch.float -> !torch.vtensor<[64],f32>
    %748 = torch.aten.mul.Scalar %arg42, %float9.000000e-01 : !torch.vtensor<[64],f32>, !torch.float -> !torch.vtensor<[64],f32>
    %749 = torch.aten.add.Tensor %747, %748, %int1 : !torch.vtensor<[64],f32>, !torch.vtensor<[64],f32>, !torch.int -> !torch.vtensor<[64],f32>
    %750 = torch.aten.squeeze.dim %737, %int3 : !torch.vtensor<[1,64,1,1],f32>, !torch.int -> !torch.vtensor<[1,64,1],f32>
    %751 = torch.aten.squeeze.dim %750, %int2 : !torch.vtensor<[1,64,1],f32>, !torch.int -> !torch.vtensor<[1,64],f32>
    %752 = torch.aten.squeeze.dim %751, %int0 : !torch.vtensor<[1,64],f32>, !torch.int -> !torch.vtensor<[64],f32>
    %753 = torch.aten.mul.Scalar %752, %float1.015870e00 : !torch.vtensor<[64],f32>, !torch.float -> !torch.vtensor<[64],f32>
    %754 = torch.aten.mul.Scalar %753, %float1.000000e-01 : !torch.vtensor<[64],f32>, !torch.float -> !torch.vtensor<[64],f32>
    %755 = torch.aten.mul.Scalar %arg43, %float9.000000e-01 : !torch.vtensor<[64],f32>, !torch.float -> !torch.vtensor<[64],f32>
    %756 = torch.aten.add.Tensor %754, %755, %int1 : !torch.vtensor<[64],f32>, !torch.vtensor<[64],f32>, !torch.int -> !torch.vtensor<[64],f32>
    %757 = torch.aten.unsqueeze %21, %int-1 : !torch.vtensor<[64],f32>, !torch.int -> !torch.vtensor<[64,1],f32>
    %758 = torch.aten.unsqueeze %757, %int-1 : !torch.vtensor<[64,1],f32>, !torch.int -> !torch.vtensor<[64,1,1],f32>
    %759 = torch.aten.mul.Tensor %743, %758 : !torch.vtensor<[1,64,8,8],f32>, !torch.vtensor<[64,1,1],f32> -> !torch.vtensor<[1,64,8,8],f32>
    %760 = torch.aten.unsqueeze %20, %int-1 : !torch.vtensor<[64],f32>, !torch.int -> !torch.vtensor<[64,1],f32>
    %761 = torch.aten.unsqueeze %760, %int-1 : !torch.vtensor<[64,1],f32>, !torch.int -> !torch.vtensor<[64,1,1],f32>
    %762 = torch.aten.add.Tensor %759, %761, %int1 : !torch.vtensor<[1,64,8,8],f32>, !torch.vtensor<[64,1,1],f32>, !torch.int -> !torch.vtensor<[1,64,8,8],f32>
    %763 = torch.aten.div.Tensor %762, %62 : !torch.vtensor<[1,64,8,8],f32>, !torch.vtensor<[1],f32> -> !torch.vtensor<[1,64,8,8],f32>
    %764 = torch.aten.clamp %763, %int0, %int1 : !torch.vtensor<[1,64,8,8],f32>, !torch.int, !torch.int -> !torch.vtensor<[1,64,8,8],f32>
    %765 = torch.aten.mul.Scalar %764, %int8 : !torch.vtensor<[1,64,8,8],f32>, !torch.int -> !torch.vtensor<[1,64,8,8],f32>
    %766 = torch.aten.add.Scalar %765, %float5.000000e-01, %int1 : !torch.vtensor<[1,64,8,8],f32>, !torch.float, !torch.int -> !torch.vtensor<[1,64,8,8],f32>
    %767 = torch.aten.floor %766 : !torch.vtensor<[1,64,8,8],f32> -> !torch.vtensor<[1,64,8,8],f32>
    %768 = torch.aten.div.Scalar %767, %int8 : !torch.vtensor<[1,64,8,8],f32>, !torch.int -> !torch.vtensor<[1,64,8,8],f32>
    %769 = torch.aten.mul.Tensor %768, %62 : !torch.vtensor<[1,64,8,8],f32>, !torch.vtensor<[1],f32> -> !torch.vtensor<[1,64,8,8],f32>
    %770 = torch.prim.ListConstruct %int1, %int1 : (!torch.int, !torch.int) -> !torch.list<int>
    %771 = torch.prim.ListConstruct %int1, %int1 : (!torch.int, !torch.int) -> !torch.list<int>
    %772 = torch.prim.ListConstruct %int1, %int1 : (!torch.int, !torch.int) -> !torch.list<int>
    %773 = torch.prim.ListConstruct  : () -> !torch.list<int>
    %774 = torch.aten.convolution %769, %19, %none, %770, %771, %772, %false, %773, %int1 : !torch.vtensor<[1,64,8,8],f32>, !torch.vtensor<[64,64,3,3],f32>, !torch.none, !torch.list<int>, !torch.list<int>, !torch.list<int>, !torch.bool, !torch.list<int>, !torch.int -> !torch.vtensor<[1,64,8,8],f32>
    %775 = torch.aten.add.Scalar %arg47, %int1, %int1 : !torch.vtensor<[],si64>, !torch.int, !torch.int -> !torch.vtensor<[],si64>
    %776 = torch.prim.ListConstruct %int0, %int2, %int3 : (!torch.int, !torch.int, !torch.int) -> !torch.list<int>
    %777 = torch.aten.to.dtype %774, %int7, %false, %false, %none : !torch.vtensor<[1,64,8,8],f32>, !torch.int, !torch.bool, !torch.bool, !torch.none -> !torch.vtensor<[1,64,8,8],f64>
    %778 = torch.aten.sum.dim_IntList %777, %776, %true, %none : !torch.vtensor<[1,64,8,8],f64>, !torch.list<int>, !torch.bool, !torch.none -> !torch.vtensor<[1,64,1,1],f64>
    %779 = torch.aten.div.Scalar %778, %int64 : !torch.vtensor<[1,64,1,1],f64>, !torch.int -> !torch.vtensor<[1,64,1,1],f64>
    %780 = torch.aten.sub.Tensor %777, %779, %float1.000000e00 : !torch.vtensor<[1,64,8,8],f64>, !torch.vtensor<[1,64,1,1],f64>, !torch.float -> !torch.vtensor<[1,64,8,8],f64>
    %781 = torch.aten.mul.Tensor %780, %780 : !torch.vtensor<[1,64,8,8],f64>, !torch.vtensor<[1,64,8,8],f64> -> !torch.vtensor<[1,64,8,8],f64>
    %782 = torch.aten.sum.dim_IntList %781, %776, %true, %none : !torch.vtensor<[1,64,8,8],f64>, !torch.list<int>, !torch.bool, !torch.none -> !torch.vtensor<[1,64,1,1],f64>
    %783 = torch.aten.div.Scalar %782, %int64 : !torch.vtensor<[1,64,1,1],f64>, !torch.int -> !torch.vtensor<[1,64,1,1],f64>
    %784 = torch.aten.to.dtype %783, %int6, %false, %false, %none : !torch.vtensor<[1,64,1,1],f64>, !torch.int, !torch.bool, !torch.bool, !torch.none -> !torch.vtensor<[1,64,1,1],f32>
    %785 = torch.aten.sum.dim_IntList %774, %776, %true, %none : !torch.vtensor<[1,64,8,8],f32>, !torch.list<int>, !torch.bool, !torch.none -> !torch.vtensor<[1,64,1,1],f32>
    %786 = torch.aten.div.Scalar %785, %int64 : !torch.vtensor<[1,64,1,1],f32>, !torch.int -> !torch.vtensor<[1,64,1,1],f32>
    %787 = torch.aten.add.Scalar %784, %float1.000000e-05, %int1 : !torch.vtensor<[1,64,1,1],f32>, !torch.float, !torch.int -> !torch.vtensor<[1,64,1,1],f32>
    %788 = torch.aten.rsqrt %787 : !torch.vtensor<[1,64,1,1],f32> -> !torch.vtensor<[1,64,1,1],f32>
    %789 = torch.aten.sub.Tensor %774, %786, %int1 : !torch.vtensor<[1,64,8,8],f32>, !torch.vtensor<[1,64,1,1],f32>, !torch.int -> !torch.vtensor<[1,64,8,8],f32>
    %790 = torch.aten.mul.Tensor %789, %788 : !torch.vtensor<[1,64,8,8],f32>, !torch.vtensor<[1,64,1,1],f32> -> !torch.vtensor<[1,64,8,8],f32>
    %791 = torch.aten.squeeze.dim %786, %int3 : !torch.vtensor<[1,64,1,1],f32>, !torch.int -> !torch.vtensor<[1,64,1],f32>
    %792 = torch.aten.squeeze.dim %791, %int2 : !torch.vtensor<[1,64,1],f32>, !torch.int -> !torch.vtensor<[1,64],f32>
    %793 = torch.aten.squeeze.dim %792, %int0 : !torch.vtensor<[1,64],f32>, !torch.int -> !torch.vtensor<[64],f32>
    %794 = torch.aten.mul.Scalar %793, %float1.000000e-01 : !torch.vtensor<[64],f32>, !torch.float -> !torch.vtensor<[64],f32>
    %795 = torch.aten.mul.Scalar %arg45, %float9.000000e-01 : !torch.vtensor<[64],f32>, !torch.float -> !torch.vtensor<[64],f32>
    %796 = torch.aten.add.Tensor %794, %795, %int1 : !torch.vtensor<[64],f32>, !torch.vtensor<[64],f32>, !torch.int -> !torch.vtensor<[64],f32>
    %797 = torch.aten.squeeze.dim %784, %int3 : !torch.vtensor<[1,64,1,1],f32>, !torch.int -> !torch.vtensor<[1,64,1],f32>
    %798 = torch.aten.squeeze.dim %797, %int2 : !torch.vtensor<[1,64,1],f32>, !torch.int -> !torch.vtensor<[1,64],f32>
    %799 = torch.aten.squeeze.dim %798, %int0 : !torch.vtensor<[1,64],f32>, !torch.int -> !torch.vtensor<[64],f32>
    %800 = torch.aten.mul.Scalar %799, %float1.015870e00 : !torch.vtensor<[64],f32>, !torch.float -> !torch.vtensor<[64],f32>
    %801 = torch.aten.mul.Scalar %800, %float1.000000e-01 : !torch.vtensor<[64],f32>, !torch.float -> !torch.vtensor<[64],f32>
    %802 = torch.aten.mul.Scalar %arg46, %float9.000000e-01 : !torch.vtensor<[64],f32>, !torch.float -> !torch.vtensor<[64],f32>
    %803 = torch.aten.add.Tensor %801, %802, %int1 : !torch.vtensor<[64],f32>, !torch.vtensor<[64],f32>, !torch.int -> !torch.vtensor<[64],f32>
    %804 = torch.aten.unsqueeze %18, %int-1 : !torch.vtensor<[64],f32>, !torch.int -> !torch.vtensor<[64,1],f32>
    %805 = torch.aten.unsqueeze %804, %int-1 : !torch.vtensor<[64,1],f32>, !torch.int -> !torch.vtensor<[64,1,1],f32>
    %806 = torch.aten.mul.Tensor %790, %805 : !torch.vtensor<[1,64,8,8],f32>, !torch.vtensor<[64,1,1],f32> -> !torch.vtensor<[1,64,8,8],f32>
    %807 = torch.aten.unsqueeze %17, %int-1 : !torch.vtensor<[64],f32>, !torch.int -> !torch.vtensor<[64,1],f32>
    %808 = torch.aten.unsqueeze %807, %int-1 : !torch.vtensor<[64,1],f32>, !torch.int -> !torch.vtensor<[64,1,1],f32>
    %809 = torch.aten.add.Tensor %806, %808, %int1 : !torch.vtensor<[1,64,8,8],f32>, !torch.vtensor<[64,1,1],f32>, !torch.int -> !torch.vtensor<[1,64,8,8],f32>
    %810 = torch.prim.ListConstruct %int2, %int2 : (!torch.int, !torch.int) -> !torch.list<int>
    %811 = torch.prim.ListConstruct %int0, %int0 : (!torch.int, !torch.int) -> !torch.list<int>
    %812 = torch.prim.ListConstruct %int1, %int1 : (!torch.int, !torch.int) -> !torch.list<int>
    %813 = torch.prim.ListConstruct  : () -> !torch.list<int>
    %814 = torch.aten.convolution %722, %16, %none, %810, %811, %812, %false, %813, %int1 : !torch.vtensor<[1,32,16,16],f32>, !torch.vtensor<[64,32,1,1],f32>, !torch.none, !torch.list<int>, !torch.list<int>, !torch.list<int>, !torch.bool, !torch.list<int>, !torch.int -> !torch.vtensor<[1,64,8,8],f32>
    %815 = torch.aten.add.Scalar %arg50, %int1, %int1 : !torch.vtensor<[],si64>, !torch.int, !torch.int -> !torch.vtensor<[],si64>
    %816 = torch.prim.ListConstruct %int0, %int2, %int3 : (!torch.int, !torch.int, !torch.int) -> !torch.list<int>
    %817 = torch.aten.to.dtype %814, %int7, %false, %false, %none : !torch.vtensor<[1,64,8,8],f32>, !torch.int, !torch.bool, !torch.bool, !torch.none -> !torch.vtensor<[1,64,8,8],f64>
    %818 = torch.aten.sum.dim_IntList %817, %816, %true, %none : !torch.vtensor<[1,64,8,8],f64>, !torch.list<int>, !torch.bool, !torch.none -> !torch.vtensor<[1,64,1,1],f64>
    %819 = torch.aten.div.Scalar %818, %int64 : !torch.vtensor<[1,64,1,1],f64>, !torch.int -> !torch.vtensor<[1,64,1,1],f64>
    %820 = torch.aten.sub.Tensor %817, %819, %float1.000000e00 : !torch.vtensor<[1,64,8,8],f64>, !torch.vtensor<[1,64,1,1],f64>, !torch.float -> !torch.vtensor<[1,64,8,8],f64>
    %821 = torch.aten.mul.Tensor %820, %820 : !torch.vtensor<[1,64,8,8],f64>, !torch.vtensor<[1,64,8,8],f64> -> !torch.vtensor<[1,64,8,8],f64>
    %822 = torch.aten.sum.dim_IntList %821, %816, %true, %none : !torch.vtensor<[1,64,8,8],f64>, !torch.list<int>, !torch.bool, !torch.none -> !torch.vtensor<[1,64,1,1],f64>
    %823 = torch.aten.div.Scalar %822, %int64 : !torch.vtensor<[1,64,1,1],f64>, !torch.int -> !torch.vtensor<[1,64,1,1],f64>
    %824 = torch.aten.to.dtype %823, %int6, %false, %false, %none : !torch.vtensor<[1,64,1,1],f64>, !torch.int, !torch.bool, !torch.bool, !torch.none -> !torch.vtensor<[1,64,1,1],f32>
    %825 = torch.aten.sum.dim_IntList %814, %816, %true, %none : !torch.vtensor<[1,64,8,8],f32>, !torch.list<int>, !torch.bool, !torch.none -> !torch.vtensor<[1,64,1,1],f32>
    %826 = torch.aten.div.Scalar %825, %int64 : !torch.vtensor<[1,64,1,1],f32>, !torch.int -> !torch.vtensor<[1,64,1,1],f32>
    %827 = torch.aten.add.Scalar %824, %float1.000000e-05, %int1 : !torch.vtensor<[1,64,1,1],f32>, !torch.float, !torch.int -> !torch.vtensor<[1,64,1,1],f32>
    %828 = torch.aten.rsqrt %827 : !torch.vtensor<[1,64,1,1],f32> -> !torch.vtensor<[1,64,1,1],f32>
    %829 = torch.aten.sub.Tensor %814, %826, %int1 : !torch.vtensor<[1,64,8,8],f32>, !torch.vtensor<[1,64,1,1],f32>, !torch.int -> !torch.vtensor<[1,64,8,8],f32>
    %830 = torch.aten.mul.Tensor %829, %828 : !torch.vtensor<[1,64,8,8],f32>, !torch.vtensor<[1,64,1,1],f32> -> !torch.vtensor<[1,64,8,8],f32>
    %831 = torch.aten.squeeze.dim %826, %int3 : !torch.vtensor<[1,64,1,1],f32>, !torch.int -> !torch.vtensor<[1,64,1],f32>
    %832 = torch.aten.squeeze.dim %831, %int2 : !torch.vtensor<[1,64,1],f32>, !torch.int -> !torch.vtensor<[1,64],f32>
    %833 = torch.aten.squeeze.dim %832, %int0 : !torch.vtensor<[1,64],f32>, !torch.int -> !torch.vtensor<[64],f32>
    %834 = torch.aten.mul.Scalar %833, %float1.000000e-01 : !torch.vtensor<[64],f32>, !torch.float -> !torch.vtensor<[64],f32>
    %835 = torch.aten.mul.Scalar %arg48, %float9.000000e-01 : !torch.vtensor<[64],f32>, !torch.float -> !torch.vtensor<[64],f32>
    %836 = torch.aten.add.Tensor %834, %835, %int1 : !torch.vtensor<[64],f32>, !torch.vtensor<[64],f32>, !torch.int -> !torch.vtensor<[64],f32>
    %837 = torch.aten.squeeze.dim %824, %int3 : !torch.vtensor<[1,64,1,1],f32>, !torch.int -> !torch.vtensor<[1,64,1],f32>
    %838 = torch.aten.squeeze.dim %837, %int2 : !torch.vtensor<[1,64,1],f32>, !torch.int -> !torch.vtensor<[1,64],f32>
    %839 = torch.aten.squeeze.dim %838, %int0 : !torch.vtensor<[1,64],f32>, !torch.int -> !torch.vtensor<[64],f32>
    %840 = torch.aten.mul.Scalar %839, %float1.015870e00 : !torch.vtensor<[64],f32>, !torch.float -> !torch.vtensor<[64],f32>
    %841 = torch.aten.mul.Scalar %840, %float1.000000e-01 : !torch.vtensor<[64],f32>, !torch.float -> !torch.vtensor<[64],f32>
    %842 = torch.aten.mul.Scalar %arg49, %float9.000000e-01 : !torch.vtensor<[64],f32>, !torch.float -> !torch.vtensor<[64],f32>
    %843 = torch.aten.add.Tensor %841, %842, %int1 : !torch.vtensor<[64],f32>, !torch.vtensor<[64],f32>, !torch.int -> !torch.vtensor<[64],f32>
    %844 = torch.aten.unsqueeze %15, %int-1 : !torch.vtensor<[64],f32>, !torch.int -> !torch.vtensor<[64,1],f32>
    %845 = torch.aten.unsqueeze %844, %int-1 : !torch.vtensor<[64,1],f32>, !torch.int -> !torch.vtensor<[64,1,1],f32>
    %846 = torch.aten.mul.Tensor %830, %845 : !torch.vtensor<[1,64,8,8],f32>, !torch.vtensor<[64,1,1],f32> -> !torch.vtensor<[1,64,8,8],f32>
    %847 = torch.aten.unsqueeze %14, %int-1 : !torch.vtensor<[64],f32>, !torch.int -> !torch.vtensor<[64,1],f32>
    %848 = torch.aten.unsqueeze %847, %int-1 : !torch.vtensor<[64,1],f32>, !torch.int -> !torch.vtensor<[64,1,1],f32>
    %849 = torch.aten.add.Tensor %846, %848, %int1 : !torch.vtensor<[1,64,8,8],f32>, !torch.vtensor<[64,1,1],f32>, !torch.int -> !torch.vtensor<[1,64,8,8],f32>
    %850 = torch.aten.add.Tensor %809, %849, %int1 : !torch.vtensor<[1,64,8,8],f32>, !torch.vtensor<[1,64,8,8],f32>, !torch.int -> !torch.vtensor<[1,64,8,8],f32>
    %851 = torch.aten.div.Tensor %850, %62 : !torch.vtensor<[1,64,8,8],f32>, !torch.vtensor<[1],f32> -> !torch.vtensor<[1,64,8,8],f32>
    %852 = torch.aten.clamp %851, %int0, %int1 : !torch.vtensor<[1,64,8,8],f32>, !torch.int, !torch.int -> !torch.vtensor<[1,64,8,8],f32>
    %853 = torch.aten.mul.Scalar %852, %int8 : !torch.vtensor<[1,64,8,8],f32>, !torch.int -> !torch.vtensor<[1,64,8,8],f32>
    %854 = torch.aten.add.Scalar %853, %float5.000000e-01, %int1 : !torch.vtensor<[1,64,8,8],f32>, !torch.float, !torch.int -> !torch.vtensor<[1,64,8,8],f32>
    %855 = torch.aten.floor %854 : !torch.vtensor<[1,64,8,8],f32> -> !torch.vtensor<[1,64,8,8],f32>
    %856 = torch.aten.div.Scalar %855, %int8 : !torch.vtensor<[1,64,8,8],f32>, !torch.int -> !torch.vtensor<[1,64,8,8],f32>
    %857 = torch.aten.mul.Tensor %856, %62 : !torch.vtensor<[1,64,8,8],f32>, !torch.vtensor<[1],f32> -> !torch.vtensor<[1,64,8,8],f32>
    %858 = torch.prim.ListConstruct %int1, %int1 : (!torch.int, !torch.int) -> !torch.list<int>
    %859 = torch.prim.ListConstruct %int1, %int1 : (!torch.int, !torch.int) -> !torch.list<int>
    %860 = torch.prim.ListConstruct %int1, %int1 : (!torch.int, !torch.int) -> !torch.list<int>
    %861 = torch.prim.ListConstruct  : () -> !torch.list<int>
    %862 = torch.aten.convolution %857, %13, %none, %858, %859, %860, %false, %861, %int1 : !torch.vtensor<[1,64,8,8],f32>, !torch.vtensor<[64,64,3,3],f32>, !torch.none, !torch.list<int>, !torch.list<int>, !torch.list<int>, !torch.bool, !torch.list<int>, !torch.int -> !torch.vtensor<[1,64,8,8],f32>
    %863 = torch.aten.add.Scalar %arg53, %int1, %int1 : !torch.vtensor<[],si64>, !torch.int, !torch.int -> !torch.vtensor<[],si64>
    %864 = torch.prim.ListConstruct %int0, %int2, %int3 : (!torch.int, !torch.int, !torch.int) -> !torch.list<int>
    %865 = torch.aten.to.dtype %862, %int7, %false, %false, %none : !torch.vtensor<[1,64,8,8],f32>, !torch.int, !torch.bool, !torch.bool, !torch.none -> !torch.vtensor<[1,64,8,8],f64>
    %866 = torch.aten.sum.dim_IntList %865, %864, %true, %none : !torch.vtensor<[1,64,8,8],f64>, !torch.list<int>, !torch.bool, !torch.none -> !torch.vtensor<[1,64,1,1],f64>
    %867 = torch.aten.div.Scalar %866, %int64 : !torch.vtensor<[1,64,1,1],f64>, !torch.int -> !torch.vtensor<[1,64,1,1],f64>
    %868 = torch.aten.sub.Tensor %865, %867, %float1.000000e00 : !torch.vtensor<[1,64,8,8],f64>, !torch.vtensor<[1,64,1,1],f64>, !torch.float -> !torch.vtensor<[1,64,8,8],f64>
    %869 = torch.aten.mul.Tensor %868, %868 : !torch.vtensor<[1,64,8,8],f64>, !torch.vtensor<[1,64,8,8],f64> -> !torch.vtensor<[1,64,8,8],f64>
    %870 = torch.aten.sum.dim_IntList %869, %864, %true, %none : !torch.vtensor<[1,64,8,8],f64>, !torch.list<int>, !torch.bool, !torch.none -> !torch.vtensor<[1,64,1,1],f64>
    %871 = torch.aten.div.Scalar %870, %int64 : !torch.vtensor<[1,64,1,1],f64>, !torch.int -> !torch.vtensor<[1,64,1,1],f64>
    %872 = torch.aten.to.dtype %871, %int6, %false, %false, %none : !torch.vtensor<[1,64,1,1],f64>, !torch.int, !torch.bool, !torch.bool, !torch.none -> !torch.vtensor<[1,64,1,1],f32>
    %873 = torch.aten.sum.dim_IntList %862, %864, %true, %none : !torch.vtensor<[1,64,8,8],f32>, !torch.list<int>, !torch.bool, !torch.none -> !torch.vtensor<[1,64,1,1],f32>
    %874 = torch.aten.div.Scalar %873, %int64 : !torch.vtensor<[1,64,1,1],f32>, !torch.int -> !torch.vtensor<[1,64,1,1],f32>
    %875 = torch.aten.add.Scalar %872, %float1.000000e-05, %int1 : !torch.vtensor<[1,64,1,1],f32>, !torch.float, !torch.int -> !torch.vtensor<[1,64,1,1],f32>
    %876 = torch.aten.rsqrt %875 : !torch.vtensor<[1,64,1,1],f32> -> !torch.vtensor<[1,64,1,1],f32>
    %877 = torch.aten.sub.Tensor %862, %874, %int1 : !torch.vtensor<[1,64,8,8],f32>, !torch.vtensor<[1,64,1,1],f32>, !torch.int -> !torch.vtensor<[1,64,8,8],f32>
    %878 = torch.aten.mul.Tensor %877, %876 : !torch.vtensor<[1,64,8,8],f32>, !torch.vtensor<[1,64,1,1],f32> -> !torch.vtensor<[1,64,8,8],f32>
    %879 = torch.aten.squeeze.dim %874, %int3 : !torch.vtensor<[1,64,1,1],f32>, !torch.int -> !torch.vtensor<[1,64,1],f32>
    %880 = torch.aten.squeeze.dim %879, %int2 : !torch.vtensor<[1,64,1],f32>, !torch.int -> !torch.vtensor<[1,64],f32>
    %881 = torch.aten.squeeze.dim %880, %int0 : !torch.vtensor<[1,64],f32>, !torch.int -> !torch.vtensor<[64],f32>
    %882 = torch.aten.mul.Scalar %881, %float1.000000e-01 : !torch.vtensor<[64],f32>, !torch.float -> !torch.vtensor<[64],f32>
    %883 = torch.aten.mul.Scalar %arg51, %float9.000000e-01 : !torch.vtensor<[64],f32>, !torch.float -> !torch.vtensor<[64],f32>
    %884 = torch.aten.add.Tensor %882, %883, %int1 : !torch.vtensor<[64],f32>, !torch.vtensor<[64],f32>, !torch.int -> !torch.vtensor<[64],f32>
    %885 = torch.aten.squeeze.dim %872, %int3 : !torch.vtensor<[1,64,1,1],f32>, !torch.int -> !torch.vtensor<[1,64,1],f32>
    %886 = torch.aten.squeeze.dim %885, %int2 : !torch.vtensor<[1,64,1],f32>, !torch.int -> !torch.vtensor<[1,64],f32>
    %887 = torch.aten.squeeze.dim %886, %int0 : !torch.vtensor<[1,64],f32>, !torch.int -> !torch.vtensor<[64],f32>
    %888 = torch.aten.mul.Scalar %887, %float1.015870e00 : !torch.vtensor<[64],f32>, !torch.float -> !torch.vtensor<[64],f32>
    %889 = torch.aten.mul.Scalar %888, %float1.000000e-01 : !torch.vtensor<[64],f32>, !torch.float -> !torch.vtensor<[64],f32>
    %890 = torch.aten.mul.Scalar %arg52, %float9.000000e-01 : !torch.vtensor<[64],f32>, !torch.float -> !torch.vtensor<[64],f32>
    %891 = torch.aten.add.Tensor %889, %890, %int1 : !torch.vtensor<[64],f32>, !torch.vtensor<[64],f32>, !torch.int -> !torch.vtensor<[64],f32>
    %892 = torch.aten.unsqueeze %12, %int-1 : !torch.vtensor<[64],f32>, !torch.int -> !torch.vtensor<[64,1],f32>
    %893 = torch.aten.unsqueeze %892, %int-1 : !torch.vtensor<[64,1],f32>, !torch.int -> !torch.vtensor<[64,1,1],f32>
    %894 = torch.aten.mul.Tensor %878, %893 : !torch.vtensor<[1,64,8,8],f32>, !torch.vtensor<[64,1,1],f32> -> !torch.vtensor<[1,64,8,8],f32>
    %895 = torch.aten.unsqueeze %11, %int-1 : !torch.vtensor<[64],f32>, !torch.int -> !torch.vtensor<[64,1],f32>
    %896 = torch.aten.unsqueeze %895, %int-1 : !torch.vtensor<[64,1],f32>, !torch.int -> !torch.vtensor<[64,1,1],f32>
    %897 = torch.aten.add.Tensor %894, %896, %int1 : !torch.vtensor<[1,64,8,8],f32>, !torch.vtensor<[64,1,1],f32>, !torch.int -> !torch.vtensor<[1,64,8,8],f32>
    %898 = torch.aten.div.Tensor %897, %62 : !torch.vtensor<[1,64,8,8],f32>, !torch.vtensor<[1],f32> -> !torch.vtensor<[1,64,8,8],f32>
    %899 = torch.aten.clamp %898, %int0, %int1 : !torch.vtensor<[1,64,8,8],f32>, !torch.int, !torch.int -> !torch.vtensor<[1,64,8,8],f32>
    %900 = torch.aten.mul.Scalar %899, %int8 : !torch.vtensor<[1,64,8,8],f32>, !torch.int -> !torch.vtensor<[1,64,8,8],f32>
    %901 = torch.aten.add.Scalar %900, %float5.000000e-01, %int1 : !torch.vtensor<[1,64,8,8],f32>, !torch.float, !torch.int -> !torch.vtensor<[1,64,8,8],f32>
    %902 = torch.aten.floor %901 : !torch.vtensor<[1,64,8,8],f32> -> !torch.vtensor<[1,64,8,8],f32>
    %903 = torch.aten.div.Scalar %902, %int8 : !torch.vtensor<[1,64,8,8],f32>, !torch.int -> !torch.vtensor<[1,64,8,8],f32>
    %904 = torch.aten.mul.Tensor %903, %62 : !torch.vtensor<[1,64,8,8],f32>, !torch.vtensor<[1],f32> -> !torch.vtensor<[1,64,8,8],f32>
    %905 = torch.prim.ListConstruct %int1, %int1 : (!torch.int, !torch.int) -> !torch.list<int>
    %906 = torch.prim.ListConstruct %int1, %int1 : (!torch.int, !torch.int) -> !torch.list<int>
    %907 = torch.prim.ListConstruct %int1, %int1 : (!torch.int, !torch.int) -> !torch.list<int>
    %908 = torch.prim.ListConstruct  : () -> !torch.list<int>
    %909 = torch.aten.convolution %904, %10, %none, %905, %906, %907, %false, %908, %int1 : !torch.vtensor<[1,64,8,8],f32>, !torch.vtensor<[64,64,3,3],f32>, !torch.none, !torch.list<int>, !torch.list<int>, !torch.list<int>, !torch.bool, !torch.list<int>, !torch.int -> !torch.vtensor<[1,64,8,8],f32>
    %910 = torch.aten.add.Scalar %arg56, %int1, %int1 : !torch.vtensor<[],si64>, !torch.int, !torch.int -> !torch.vtensor<[],si64>
    %911 = torch.prim.ListConstruct %int0, %int2, %int3 : (!torch.int, !torch.int, !torch.int) -> !torch.list<int>
    %912 = torch.aten.to.dtype %909, %int7, %false, %false, %none : !torch.vtensor<[1,64,8,8],f32>, !torch.int, !torch.bool, !torch.bool, !torch.none -> !torch.vtensor<[1,64,8,8],f64>
    %913 = torch.aten.sum.dim_IntList %912, %911, %true, %none : !torch.vtensor<[1,64,8,8],f64>, !torch.list<int>, !torch.bool, !torch.none -> !torch.vtensor<[1,64,1,1],f64>
    %914 = torch.aten.div.Scalar %913, %int64 : !torch.vtensor<[1,64,1,1],f64>, !torch.int -> !torch.vtensor<[1,64,1,1],f64>
    %915 = torch.aten.sub.Tensor %912, %914, %float1.000000e00 : !torch.vtensor<[1,64,8,8],f64>, !torch.vtensor<[1,64,1,1],f64>, !torch.float -> !torch.vtensor<[1,64,8,8],f64>
    %916 = torch.aten.mul.Tensor %915, %915 : !torch.vtensor<[1,64,8,8],f64>, !torch.vtensor<[1,64,8,8],f64> -> !torch.vtensor<[1,64,8,8],f64>
    %917 = torch.aten.sum.dim_IntList %916, %911, %true, %none : !torch.vtensor<[1,64,8,8],f64>, !torch.list<int>, !torch.bool, !torch.none -> !torch.vtensor<[1,64,1,1],f64>
    %918 = torch.aten.div.Scalar %917, %int64 : !torch.vtensor<[1,64,1,1],f64>, !torch.int -> !torch.vtensor<[1,64,1,1],f64>
    %919 = torch.aten.to.dtype %918, %int6, %false, %false, %none : !torch.vtensor<[1,64,1,1],f64>, !torch.int, !torch.bool, !torch.bool, !torch.none -> !torch.vtensor<[1,64,1,1],f32>
    %920 = torch.aten.sum.dim_IntList %909, %911, %true, %none : !torch.vtensor<[1,64,8,8],f32>, !torch.list<int>, !torch.bool, !torch.none -> !torch.vtensor<[1,64,1,1],f32>
    %921 = torch.aten.div.Scalar %920, %int64 : !torch.vtensor<[1,64,1,1],f32>, !torch.int -> !torch.vtensor<[1,64,1,1],f32>
    %922 = torch.aten.add.Scalar %919, %float1.000000e-05, %int1 : !torch.vtensor<[1,64,1,1],f32>, !torch.float, !torch.int -> !torch.vtensor<[1,64,1,1],f32>
    %923 = torch.aten.rsqrt %922 : !torch.vtensor<[1,64,1,1],f32> -> !torch.vtensor<[1,64,1,1],f32>
    %924 = torch.aten.sub.Tensor %909, %921, %int1 : !torch.vtensor<[1,64,8,8],f32>, !torch.vtensor<[1,64,1,1],f32>, !torch.int -> !torch.vtensor<[1,64,8,8],f32>
    %925 = torch.aten.mul.Tensor %924, %923 : !torch.vtensor<[1,64,8,8],f32>, !torch.vtensor<[1,64,1,1],f32> -> !torch.vtensor<[1,64,8,8],f32>
    %926 = torch.aten.squeeze.dim %921, %int3 : !torch.vtensor<[1,64,1,1],f32>, !torch.int -> !torch.vtensor<[1,64,1],f32>
    %927 = torch.aten.squeeze.dim %926, %int2 : !torch.vtensor<[1,64,1],f32>, !torch.int -> !torch.vtensor<[1,64],f32>
    %928 = torch.aten.squeeze.dim %927, %int0 : !torch.vtensor<[1,64],f32>, !torch.int -> !torch.vtensor<[64],f32>
    %929 = torch.aten.mul.Scalar %928, %float1.000000e-01 : !torch.vtensor<[64],f32>, !torch.float -> !torch.vtensor<[64],f32>
    %930 = torch.aten.mul.Scalar %arg54, %float9.000000e-01 : !torch.vtensor<[64],f32>, !torch.float -> !torch.vtensor<[64],f32>
    %931 = torch.aten.add.Tensor %929, %930, %int1 : !torch.vtensor<[64],f32>, !torch.vtensor<[64],f32>, !torch.int -> !torch.vtensor<[64],f32>
    %932 = torch.aten.squeeze.dim %919, %int3 : !torch.vtensor<[1,64,1,1],f32>, !torch.int -> !torch.vtensor<[1,64,1],f32>
    %933 = torch.aten.squeeze.dim %932, %int2 : !torch.vtensor<[1,64,1],f32>, !torch.int -> !torch.vtensor<[1,64],f32>
    %934 = torch.aten.squeeze.dim %933, %int0 : !torch.vtensor<[1,64],f32>, !torch.int -> !torch.vtensor<[64],f32>
    %935 = torch.aten.mul.Scalar %934, %float1.015870e00 : !torch.vtensor<[64],f32>, !torch.float -> !torch.vtensor<[64],f32>
    %936 = torch.aten.mul.Scalar %935, %float1.000000e-01 : !torch.vtensor<[64],f32>, !torch.float -> !torch.vtensor<[64],f32>
    %937 = torch.aten.mul.Scalar %arg55, %float9.000000e-01 : !torch.vtensor<[64],f32>, !torch.float -> !torch.vtensor<[64],f32>
    %938 = torch.aten.add.Tensor %936, %937, %int1 : !torch.vtensor<[64],f32>, !torch.vtensor<[64],f32>, !torch.int -> !torch.vtensor<[64],f32>
    %939 = torch.aten.unsqueeze %9, %int-1 : !torch.vtensor<[64],f32>, !torch.int -> !torch.vtensor<[64,1],f32>
    %940 = torch.aten.unsqueeze %939, %int-1 : !torch.vtensor<[64,1],f32>, !torch.int -> !torch.vtensor<[64,1,1],f32>
    %941 = torch.aten.mul.Tensor %925, %940 : !torch.vtensor<[1,64,8,8],f32>, !torch.vtensor<[64,1,1],f32> -> !torch.vtensor<[1,64,8,8],f32>
    %942 = torch.aten.unsqueeze %8, %int-1 : !torch.vtensor<[64],f32>, !torch.int -> !torch.vtensor<[64,1],f32>
    %943 = torch.aten.unsqueeze %942, %int-1 : !torch.vtensor<[64,1],f32>, !torch.int -> !torch.vtensor<[64,1,1],f32>
    %944 = torch.aten.add.Tensor %941, %943, %int1 : !torch.vtensor<[1,64,8,8],f32>, !torch.vtensor<[64,1,1],f32>, !torch.int -> !torch.vtensor<[1,64,8,8],f32>
    %945 = torch.aten.add.Tensor %944, %857, %int1 : !torch.vtensor<[1,64,8,8],f32>, !torch.vtensor<[1,64,8,8],f32>, !torch.int -> !torch.vtensor<[1,64,8,8],f32>
    %946 = torch.aten.div.Tensor %945, %62 : !torch.vtensor<[1,64,8,8],f32>, !torch.vtensor<[1],f32> -> !torch.vtensor<[1,64,8,8],f32>
    %947 = torch.aten.clamp %946, %int0, %int1 : !torch.vtensor<[1,64,8,8],f32>, !torch.int, !torch.int -> !torch.vtensor<[1,64,8,8],f32>
    %948 = torch.aten.mul.Scalar %947, %int8 : !torch.vtensor<[1,64,8,8],f32>, !torch.int -> !torch.vtensor<[1,64,8,8],f32>
    %949 = torch.aten.add.Scalar %948, %float5.000000e-01, %int1 : !torch.vtensor<[1,64,8,8],f32>, !torch.float, !torch.int -> !torch.vtensor<[1,64,8,8],f32>
    %950 = torch.aten.floor %949 : !torch.vtensor<[1,64,8,8],f32> -> !torch.vtensor<[1,64,8,8],f32>
    %951 = torch.aten.div.Scalar %950, %int8 : !torch.vtensor<[1,64,8,8],f32>, !torch.int -> !torch.vtensor<[1,64,8,8],f32>
    %952 = torch.aten.mul.Tensor %951, %62 : !torch.vtensor<[1,64,8,8],f32>, !torch.vtensor<[1],f32> -> !torch.vtensor<[1,64,8,8],f32>
    %953 = torch.prim.ListConstruct %int1, %int1 : (!torch.int, !torch.int) -> !torch.list<int>
    %954 = torch.prim.ListConstruct %int1, %int1 : (!torch.int, !torch.int) -> !torch.list<int>
    %955 = torch.prim.ListConstruct %int1, %int1 : (!torch.int, !torch.int) -> !torch.list<int>
    %956 = torch.prim.ListConstruct  : () -> !torch.list<int>
    %957 = torch.aten.convolution %952, %7, %none, %953, %954, %955, %false, %956, %int1 : !torch.vtensor<[1,64,8,8],f32>, !torch.vtensor<[64,64,3,3],f32>, !torch.none, !torch.list<int>, !torch.list<int>, !torch.list<int>, !torch.bool, !torch.list<int>, !torch.int -> !torch.vtensor<[1,64,8,8],f32>
    %958 = torch.aten.add.Scalar %arg59, %int1, %int1 : !torch.vtensor<[],si64>, !torch.int, !torch.int -> !torch.vtensor<[],si64>
    %959 = torch.prim.ListConstruct %int0, %int2, %int3 : (!torch.int, !torch.int, !torch.int) -> !torch.list<int>
    %960 = torch.aten.to.dtype %957, %int7, %false, %false, %none : !torch.vtensor<[1,64,8,8],f32>, !torch.int, !torch.bool, !torch.bool, !torch.none -> !torch.vtensor<[1,64,8,8],f64>
    %961 = torch.aten.sum.dim_IntList %960, %959, %true, %none : !torch.vtensor<[1,64,8,8],f64>, !torch.list<int>, !torch.bool, !torch.none -> !torch.vtensor<[1,64,1,1],f64>
    %962 = torch.aten.div.Scalar %961, %int64 : !torch.vtensor<[1,64,1,1],f64>, !torch.int -> !torch.vtensor<[1,64,1,1],f64>
    %963 = torch.aten.sub.Tensor %960, %962, %float1.000000e00 : !torch.vtensor<[1,64,8,8],f64>, !torch.vtensor<[1,64,1,1],f64>, !torch.float -> !torch.vtensor<[1,64,8,8],f64>
    %964 = torch.aten.mul.Tensor %963, %963 : !torch.vtensor<[1,64,8,8],f64>, !torch.vtensor<[1,64,8,8],f64> -> !torch.vtensor<[1,64,8,8],f64>
    %965 = torch.aten.sum.dim_IntList %964, %959, %true, %none : !torch.vtensor<[1,64,8,8],f64>, !torch.list<int>, !torch.bool, !torch.none -> !torch.vtensor<[1,64,1,1],f64>
    %966 = torch.aten.div.Scalar %965, %int64 : !torch.vtensor<[1,64,1,1],f64>, !torch.int -> !torch.vtensor<[1,64,1,1],f64>
    %967 = torch.aten.to.dtype %966, %int6, %false, %false, %none : !torch.vtensor<[1,64,1,1],f64>, !torch.int, !torch.bool, !torch.bool, !torch.none -> !torch.vtensor<[1,64,1,1],f32>
    %968 = torch.aten.sum.dim_IntList %957, %959, %true, %none : !torch.vtensor<[1,64,8,8],f32>, !torch.list<int>, !torch.bool, !torch.none -> !torch.vtensor<[1,64,1,1],f32>
    %969 = torch.aten.div.Scalar %968, %int64 : !torch.vtensor<[1,64,1,1],f32>, !torch.int -> !torch.vtensor<[1,64,1,1],f32>
    %970 = torch.aten.add.Scalar %967, %float1.000000e-05, %int1 : !torch.vtensor<[1,64,1,1],f32>, !torch.float, !torch.int -> !torch.vtensor<[1,64,1,1],f32>
    %971 = torch.aten.rsqrt %970 : !torch.vtensor<[1,64,1,1],f32> -> !torch.vtensor<[1,64,1,1],f32>
    %972 = torch.aten.sub.Tensor %957, %969, %int1 : !torch.vtensor<[1,64,8,8],f32>, !torch.vtensor<[1,64,1,1],f32>, !torch.int -> !torch.vtensor<[1,64,8,8],f32>
    %973 = torch.aten.mul.Tensor %972, %971 : !torch.vtensor<[1,64,8,8],f32>, !torch.vtensor<[1,64,1,1],f32> -> !torch.vtensor<[1,64,8,8],f32>
    %974 = torch.aten.squeeze.dim %969, %int3 : !torch.vtensor<[1,64,1,1],f32>, !torch.int -> !torch.vtensor<[1,64,1],f32>
    %975 = torch.aten.squeeze.dim %974, %int2 : !torch.vtensor<[1,64,1],f32>, !torch.int -> !torch.vtensor<[1,64],f32>
    %976 = torch.aten.squeeze.dim %975, %int0 : !torch.vtensor<[1,64],f32>, !torch.int -> !torch.vtensor<[64],f32>
    %977 = torch.aten.mul.Scalar %976, %float1.000000e-01 : !torch.vtensor<[64],f32>, !torch.float -> !torch.vtensor<[64],f32>
    %978 = torch.aten.mul.Scalar %arg57, %float9.000000e-01 : !torch.vtensor<[64],f32>, !torch.float -> !torch.vtensor<[64],f32>
    %979 = torch.aten.add.Tensor %977, %978, %int1 : !torch.vtensor<[64],f32>, !torch.vtensor<[64],f32>, !torch.int -> !torch.vtensor<[64],f32>
    %980 = torch.aten.squeeze.dim %967, %int3 : !torch.vtensor<[1,64,1,1],f32>, !torch.int -> !torch.vtensor<[1,64,1],f32>
    %981 = torch.aten.squeeze.dim %980, %int2 : !torch.vtensor<[1,64,1],f32>, !torch.int -> !torch.vtensor<[1,64],f32>
    %982 = torch.aten.squeeze.dim %981, %int0 : !torch.vtensor<[1,64],f32>, !torch.int -> !torch.vtensor<[64],f32>
    %983 = torch.aten.mul.Scalar %982, %float1.015870e00 : !torch.vtensor<[64],f32>, !torch.float -> !torch.vtensor<[64],f32>
    %984 = torch.aten.mul.Scalar %983, %float1.000000e-01 : !torch.vtensor<[64],f32>, !torch.float -> !torch.vtensor<[64],f32>
    %985 = torch.aten.mul.Scalar %arg58, %float9.000000e-01 : !torch.vtensor<[64],f32>, !torch.float -> !torch.vtensor<[64],f32>
    %986 = torch.aten.add.Tensor %984, %985, %int1 : !torch.vtensor<[64],f32>, !torch.vtensor<[64],f32>, !torch.int -> !torch.vtensor<[64],f32>
    %987 = torch.aten.unsqueeze %6, %int-1 : !torch.vtensor<[64],f32>, !torch.int -> !torch.vtensor<[64,1],f32>
    %988 = torch.aten.unsqueeze %987, %int-1 : !torch.vtensor<[64,1],f32>, !torch.int -> !torch.vtensor<[64,1,1],f32>
    %989 = torch.aten.mul.Tensor %973, %988 : !torch.vtensor<[1,64,8,8],f32>, !torch.vtensor<[64,1,1],f32> -> !torch.vtensor<[1,64,8,8],f32>
    %990 = torch.aten.unsqueeze %5, %int-1 : !torch.vtensor<[64],f32>, !torch.int -> !torch.vtensor<[64,1],f32>
    %991 = torch.aten.unsqueeze %990, %int-1 : !torch.vtensor<[64,1],f32>, !torch.int -> !torch.vtensor<[64,1,1],f32>
    %992 = torch.aten.add.Tensor %989, %991, %int1 : !torch.vtensor<[1,64,8,8],f32>, !torch.vtensor<[64,1,1],f32>, !torch.int -> !torch.vtensor<[1,64,8,8],f32>
    %993 = torch.aten.div.Tensor %992, %62 : !torch.vtensor<[1,64,8,8],f32>, !torch.vtensor<[1],f32> -> !torch.vtensor<[1,64,8,8],f32>
    %994 = torch.aten.clamp %993, %int0, %int1 : !torch.vtensor<[1,64,8,8],f32>, !torch.int, !torch.int -> !torch.vtensor<[1,64,8,8],f32>
    %995 = torch.aten.mul.Scalar %994, %int8 : !torch.vtensor<[1,64,8,8],f32>, !torch.int -> !torch.vtensor<[1,64,8,8],f32>
    %996 = torch.aten.add.Scalar %995, %float5.000000e-01, %int1 : !torch.vtensor<[1,64,8,8],f32>, !torch.float, !torch.int -> !torch.vtensor<[1,64,8,8],f32>
    %997 = torch.aten.floor %996 : !torch.vtensor<[1,64,8,8],f32> -> !torch.vtensor<[1,64,8,8],f32>
    %998 = torch.aten.div.Scalar %997, %int8 : !torch.vtensor<[1,64,8,8],f32>, !torch.int -> !torch.vtensor<[1,64,8,8],f32>
    %999 = torch.aten.mul.Tensor %998, %62 : !torch.vtensor<[1,64,8,8],f32>, !torch.vtensor<[1],f32> -> !torch.vtensor<[1,64,8,8],f32>
    %1000 = torch.prim.ListConstruct %int1, %int1 : (!torch.int, !torch.int) -> !torch.list<int>
    %1001 = torch.prim.ListConstruct %int1, %int1 : (!torch.int, !torch.int) -> !torch.list<int>
    %1002 = torch.prim.ListConstruct %int1, %int1 : (!torch.int, !torch.int) -> !torch.list<int>
    %1003 = torch.prim.ListConstruct  : () -> !torch.list<int>
    %1004 = torch.aten.convolution %999, %4, %none, %1000, %1001, %1002, %false, %1003, %int1 : !torch.vtensor<[1,64,8,8],f32>, !torch.vtensor<[64,64,3,3],f32>, !torch.none, !torch.list<int>, !torch.list<int>, !torch.list<int>, !torch.bool, !torch.list<int>, !torch.int -> !torch.vtensor<[1,64,8,8],f32>
    %1005 = torch.aten.add.Scalar %arg62, %int1, %int1 : !torch.vtensor<[],si64>, !torch.int, !torch.int -> !torch.vtensor<[],si64>
    %1006 = torch.prim.ListConstruct %int0, %int2, %int3 : (!torch.int, !torch.int, !torch.int) -> !torch.list<int>
    %1007 = torch.aten.to.dtype %1004, %int7, %false, %false, %none : !torch.vtensor<[1,64,8,8],f32>, !torch.int, !torch.bool, !torch.bool, !torch.none -> !torch.vtensor<[1,64,8,8],f64>
    %1008 = torch.aten.sum.dim_IntList %1007, %1006, %true, %none : !torch.vtensor<[1,64,8,8],f64>, !torch.list<int>, !torch.bool, !torch.none -> !torch.vtensor<[1,64,1,1],f64>
    %1009 = torch.aten.div.Scalar %1008, %int64 : !torch.vtensor<[1,64,1,1],f64>, !torch.int -> !torch.vtensor<[1,64,1,1],f64>
    %1010 = torch.aten.sub.Tensor %1007, %1009, %float1.000000e00 : !torch.vtensor<[1,64,8,8],f64>, !torch.vtensor<[1,64,1,1],f64>, !torch.float -> !torch.vtensor<[1,64,8,8],f64>
    %1011 = torch.aten.mul.Tensor %1010, %1010 : !torch.vtensor<[1,64,8,8],f64>, !torch.vtensor<[1,64,8,8],f64> -> !torch.vtensor<[1,64,8,8],f64>
    %1012 = torch.aten.sum.dim_IntList %1011, %1006, %true, %none : !torch.vtensor<[1,64,8,8],f64>, !torch.list<int>, !torch.bool, !torch.none -> !torch.vtensor<[1,64,1,1],f64>
    %1013 = torch.aten.div.Scalar %1012, %int64 : !torch.vtensor<[1,64,1,1],f64>, !torch.int -> !torch.vtensor<[1,64,1,1],f64>
    %1014 = torch.aten.to.dtype %1013, %int6, %false, %false, %none : !torch.vtensor<[1,64,1,1],f64>, !torch.int, !torch.bool, !torch.bool, !torch.none -> !torch.vtensor<[1,64,1,1],f32>
    %1015 = torch.aten.sum.dim_IntList %1004, %1006, %true, %none : !torch.vtensor<[1,64,8,8],f32>, !torch.list<int>, !torch.bool, !torch.none -> !torch.vtensor<[1,64,1,1],f32>
    %1016 = torch.aten.div.Scalar %1015, %int64 : !torch.vtensor<[1,64,1,1],f32>, !torch.int -> !torch.vtensor<[1,64,1,1],f32>
    %1017 = torch.aten.add.Scalar %1014, %float1.000000e-05, %int1 : !torch.vtensor<[1,64,1,1],f32>, !torch.float, !torch.int -> !torch.vtensor<[1,64,1,1],f32>
    %1018 = torch.aten.rsqrt %1017 : !torch.vtensor<[1,64,1,1],f32> -> !torch.vtensor<[1,64,1,1],f32>
    %1019 = torch.aten.sub.Tensor %1004, %1016, %int1 : !torch.vtensor<[1,64,8,8],f32>, !torch.vtensor<[1,64,1,1],f32>, !torch.int -> !torch.vtensor<[1,64,8,8],f32>
    %1020 = torch.aten.mul.Tensor %1019, %1018 : !torch.vtensor<[1,64,8,8],f32>, !torch.vtensor<[1,64,1,1],f32> -> !torch.vtensor<[1,64,8,8],f32>
    %1021 = torch.aten.squeeze.dim %1016, %int3 : !torch.vtensor<[1,64,1,1],f32>, !torch.int -> !torch.vtensor<[1,64,1],f32>
    %1022 = torch.aten.squeeze.dim %1021, %int2 : !torch.vtensor<[1,64,1],f32>, !torch.int -> !torch.vtensor<[1,64],f32>
    %1023 = torch.aten.squeeze.dim %1022, %int0 : !torch.vtensor<[1,64],f32>, !torch.int -> !torch.vtensor<[64],f32>
    %1024 = torch.aten.mul.Scalar %1023, %float1.000000e-01 : !torch.vtensor<[64],f32>, !torch.float -> !torch.vtensor<[64],f32>
    %1025 = torch.aten.mul.Scalar %arg60, %float9.000000e-01 : !torch.vtensor<[64],f32>, !torch.float -> !torch.vtensor<[64],f32>
    %1026 = torch.aten.add.Tensor %1024, %1025, %int1 : !torch.vtensor<[64],f32>, !torch.vtensor<[64],f32>, !torch.int -> !torch.vtensor<[64],f32>
    %1027 = torch.aten.squeeze.dim %1014, %int3 : !torch.vtensor<[1,64,1,1],f32>, !torch.int -> !torch.vtensor<[1,64,1],f32>
    %1028 = torch.aten.squeeze.dim %1027, %int2 : !torch.vtensor<[1,64,1],f32>, !torch.int -> !torch.vtensor<[1,64],f32>
    %1029 = torch.aten.squeeze.dim %1028, %int0 : !torch.vtensor<[1,64],f32>, !torch.int -> !torch.vtensor<[64],f32>
    %1030 = torch.aten.mul.Scalar %1029, %float1.015870e00 : !torch.vtensor<[64],f32>, !torch.float -> !torch.vtensor<[64],f32>
    %1031 = torch.aten.mul.Scalar %1030, %float1.000000e-01 : !torch.vtensor<[64],f32>, !torch.float -> !torch.vtensor<[64],f32>
    %1032 = torch.aten.mul.Scalar %arg61, %float9.000000e-01 : !torch.vtensor<[64],f32>, !torch.float -> !torch.vtensor<[64],f32>
    %1033 = torch.aten.add.Tensor %1031, %1032, %int1 : !torch.vtensor<[64],f32>, !torch.vtensor<[64],f32>, !torch.int -> !torch.vtensor<[64],f32>
    %1034 = torch.aten.unsqueeze %3, %int-1 : !torch.vtensor<[64],f32>, !torch.int -> !torch.vtensor<[64,1],f32>
    %1035 = torch.aten.unsqueeze %1034, %int-1 : !torch.vtensor<[64,1],f32>, !torch.int -> !torch.vtensor<[64,1,1],f32>
    %1036 = torch.aten.mul.Tensor %1020, %1035 : !torch.vtensor<[1,64,8,8],f32>, !torch.vtensor<[64,1,1],f32> -> !torch.vtensor<[1,64,8,8],f32>
    %1037 = torch.aten.unsqueeze %2, %int-1 : !torch.vtensor<[64],f32>, !torch.int -> !torch.vtensor<[64,1],f32>
    %1038 = torch.aten.unsqueeze %1037, %int-1 : !torch.vtensor<[64,1],f32>, !torch.int -> !torch.vtensor<[64,1,1],f32>
    %1039 = torch.aten.add.Tensor %1036, %1038, %int1 : !torch.vtensor<[1,64,8,8],f32>, !torch.vtensor<[64,1,1],f32>, !torch.int -> !torch.vtensor<[1,64,8,8],f32>
    %1040 = torch.aten.add.Tensor %1039, %952, %int1 : !torch.vtensor<[1,64,8,8],f32>, !torch.vtensor<[1,64,8,8],f32>, !torch.int -> !torch.vtensor<[1,64,8,8],f32>
    %1041 = torch.aten.div.Tensor %1040, %62 : !torch.vtensor<[1,64,8,8],f32>, !torch.vtensor<[1],f32> -> !torch.vtensor<[1,64,8,8],f32>
    %1042 = torch.aten.clamp %1041, %int0, %int1 : !torch.vtensor<[1,64,8,8],f32>, !torch.int, !torch.int -> !torch.vtensor<[1,64,8,8],f32>
    %1043 = torch.aten.mul.Scalar %1042, %int8 : !torch.vtensor<[1,64,8,8],f32>, !torch.int -> !torch.vtensor<[1,64,8,8],f32>
    %1044 = torch.aten.add.Scalar %1043, %float5.000000e-01, %int1 : !torch.vtensor<[1,64,8,8],f32>, !torch.float, !torch.int -> !torch.vtensor<[1,64,8,8],f32>
    %1045 = torch.aten.floor %1044 : !torch.vtensor<[1,64,8,8],f32> -> !torch.vtensor<[1,64,8,8],f32>
    %1046 = torch.aten.div.Scalar %1045, %int8 : !torch.vtensor<[1,64,8,8],f32>, !torch.int -> !torch.vtensor<[1,64,8,8],f32>
    %1047 = torch.aten.mul.Tensor %1046, %62 : !torch.vtensor<[1,64,8,8],f32>, !torch.vtensor<[1],f32> -> !torch.vtensor<[1,64,8,8],f32>
    %1048 = torch.prim.ListConstruct %int8, %int8 : (!torch.int, !torch.int) -> !torch.list<int>
    %1049 = torch.prim.ListConstruct %int8, %int8 : (!torch.int, !torch.int) -> !torch.list<int>
    %1050 = torch.prim.ListConstruct %int0, %int0 : (!torch.int, !torch.int) -> !torch.list<int>
    %1051 = torch.aten.avg_pool2d %1047, %1048, %1049, %1050, %false, %true, %none : !torch.vtensor<[1,64,8,8],f32>, !torch.list<int>, !torch.list<int>, !torch.list<int>, !torch.bool, !torch.bool, !torch.none -> !torch.vtensor<[1,64,1,1],f32>
    %1052 = torch.prim.ListConstruct %int1, %int-1 : (!torch.int, !torch.int) -> !torch.list<int>
    %1053 = torch.aten.view %1051, %1052 : !torch.vtensor<[1,64,1,1],f32>, !torch.list<int> -> !torch.vtensor<[1,64],f32>
    %1054 = torch.aten.transpose.int %1, %int0, %int1 : !torch.vtensor<[100,64],f32>, !torch.int, !torch.int -> !torch.vtensor<[64,100],f32>
    %1055 = torch.aten.mm %1053, %1054 : !torch.vtensor<[1,64],f32>, !torch.vtensor<[64,100],f32> -> !torch.vtensor<[1,100],f32>
    %1056 = torch.aten.add.Tensor %1055, %0, %int1 : !torch.vtensor<[1,100],f32>, !torch.vtensor<[100],f32>, !torch.int -> !torch.vtensor<[1,100],f32>
    return %92, %99, %71, %139, %146, %118, %186, %193, %165, %234, %241, %213, %281, %288, %260, %329, %336, %308, %376, %383, %355, %424, %431, %403, %471, %478, %450, %511, %518, %490, %559, %566, %538, %606, %613, %585, %654, %661, %633, %701, %708, %680, %749, %756, %728, %796, %803, %775, %836, %843, %815, %884, %891, %863, %931, %938, %910, %979, %986, %958, %1026, %1033, %1005, %1056 : !torch.vtensor<[16],f32>, !torch.vtensor<[16],f32>, !torch.vtensor<[],si64>, !torch.vtensor<[16],f32>, !torch.vtensor<[16],f32>, !torch.vtensor<[],si64>, !torch.vtensor<[16],f32>, !torch.vtensor<[16],f32>, !torch.vtensor<[],si64>, !torch.vtensor<[16],f32>, !torch.vtensor<[16],f32>, !torch.vtensor<[],si64>, !torch.vtensor<[16],f32>, !torch.vtensor<[16],f32>, !torch.vtensor<[],si64>, !torch.vtensor<[16],f32>, !torch.vtensor<[16],f32>, !torch.vtensor<[],si64>, !torch.vtensor<[16],f32>, !torch.vtensor<[16],f32>, !torch.vtensor<[],si64>, !torch.vtensor<[32],f32>, !torch.vtensor<[32],f32>, !torch.vtensor<[],si64>, !torch.vtensor<[32],f32>, !torch.vtensor<[32],f32>, !torch.vtensor<[],si64>, !torch.vtensor<[32],f32>, !torch.vtensor<[32],f32>, !torch.vtensor<[],si64>, !torch.vtensor<[32],f32>, !torch.vtensor<[32],f32>, !torch.vtensor<[],si64>, !torch.vtensor<[32],f32>, !torch.vtensor<[32],f32>, !torch.vtensor<[],si64>, !torch.vtensor<[32],f32>, !torch.vtensor<[32],f32>, !torch.vtensor<[],si64>, !torch.vtensor<[32],f32>, !torch.vtensor<[32],f32>, !torch.vtensor<[],si64>, !torch.vtensor<[64],f32>, !torch.vtensor<[64],f32>, !torch.vtensor<[],si64>, !torch.vtensor<[64],f32>, !torch.vtensor<[64],f32>, !torch.vtensor<[],si64>, !torch.vtensor<[64],f32>, !torch.vtensor<[64],f32>, !torch.vtensor<[],si64>, !torch.vtensor<[64],f32>, !torch.vtensor<[64],f32>, !torch.vtensor<[],si64>, !torch.vtensor<[64],f32>, !torch.vtensor<[64],f32>, !torch.vtensor<[],si64>, !torch.vtensor<[64],f32>, !torch.vtensor<[64],f32>, !torch.vtensor<[],si64>, !torch.vtensor<[64],f32>, !torch.vtensor<[64],f32>, !torch.vtensor<[],si64>, !torch.vtensor<[1,100],f32>
  }
}

{-#
  dialect_resources: {
    builtin: {
      torch_tensor_100_torch.float32: "…",
      torch_tensor_100_64_torch.float32: "…",
      torch_tensor_64_torch.float32_13: "…",
      torch_tensor_64_torch.float32_12: "…",
      torch_tensor_64_64_3_3_torch.float32_4: "…",
      torch_tensor_64_torch.float32_11: "…",
      torch_tensor_64_torch.float32_10: "…",
      torch_tensor_64_64_3_3_torch.float32_3: "…",
      torch_tensor_64_torch.float32_9: "…",
      torch_tensor_64_torch.float32_8: "…",
      torch_tensor_64_64_3_3_torch.float32_2: "…",
      torch_tensor_64_torch.float32_7: "…",
      torch_tensor_64_torch.float32_6: "…",
      torch_tensor_64_64_3_3_torch.float32_1: "…",
      torch_tensor_64_torch.float32_5: "…",
      torch_tensor_64_torch.float32_4: "…",
      torch_tensor_64_32_1_1_torch.float32: "…",
      torch_tensor_64_torch.float32_3: "…",
      torch_tensor_64_torch.float32_2: "…",
      torch_tensor_64_64_3_3_torch.float32: "…",
      torch_tensor_64_torch.float32_1: "…",
      torch_tensor_64_torch.float32: "…",
      torch_tensor_64_32_3_3_torch.float32: "…",
      torch_tensor_32_torch.float32_13: "…",
      torch_tensor_32_torch.float32_12: "…",
      torch_tensor_32_32_3_3_torch.float32_4: "…",
      torch_tensor_32_torch.float32_11: "…",
      torch_tensor_32_torch.float32_10: "…",
      torch_tensor_32_32_3_3_torch.float32_3: "…",
      torch_tensor_32_torch.float32_9: "…",
      torch_tensor_32_torch.float32_8: "…",
      torch_tensor_32_32_3_3_torch.float32_2: "…",
      torch_tensor_32_torch.float32_7: "…",
      torch_tensor_32_torch.float32_6: "…",
      torch_tensor_32_32_3_3_torch.float32_1: "…",
      torch_tensor_32_torch.float32_5: "…",
      torch_tensor_32_torch.float32_4: "…",
      torch_tensor_32_16_1_1_torch.float32: "…",
      torch_tensor_32_torch.float32_3: "…",
      torch_tensor_32_torch.float32_2: "…",
      torch_tensor_32_32_3_3_torch.float32: "…",
      torch_tensor_32_torch.float32_1: "…",
      torch_tensor_32_torch.float32: "…",
      torch_tensor_32_16_3_3_torch.float32: "…",
      torch_tensor_16_torch.float32_13: "…",
      torch_tensor_16_torch.float32_12: "…",
      torch_tensor_16_16_3_3_torch.float32_5: "…",
      torch_tensor_16_torch.float32_11: "…",
      torch_tensor_16_torch.float32_10: "…",
      torch_tensor_16_16_3_3_torch.float32_4: "…",
      torch_tensor_16_torch.float32_9: "…",
      torch_tensor_16_torch.float32_8: "…",
      torch_tensor_16_16_3_3_torch.float32_3: "…",
      torch_tensor_16_torch.float32_7: "…",
      torch_tensor_16_torch.float32_6: "…",
      torch_tensor_16_16_3_3_torch.float32_2: "…",
      torch_tensor_16_torch.float32_5: "…",
      torch_tensor_16_torch.float32_4: "…",
      torch_tensor_16_16_3_3_torch.float32_1: "…",
      torch_tensor_16_torch.float32_3: "…",
      torch_tensor_16_torch.float32_2: "…",
      torch_tensor_16_16_3_3_torch.float32: "…",
      torch_tensor_16_torch.float32_1: "…",
      torch_tensor_16_torch.float32: "…",
      torch_tensor_16_3_3_3_torch.float32: "…"
    }
  }
#-}
